#loc = loc("/home/ubuntu/miniconda3/envs/llm/lib/python3.12/site-packages/flash_attn/ops/triton/cross_entropy.py":104:0)
#loc42 = loc("dlogits_ptr"(#loc))
#loc43 = loc("dloss_ptr"(#loc))
#loc44 = loc("logits_ptr"(#loc))
#loc45 = loc("lse_ptr"(#loc))
#loc46 = loc("labels_ptr"(#loc))
#loc47 = loc("smoothing"(#loc))
#loc48 = loc("logit_scale"(#loc))
#loc49 = loc("lse_square_scale"(#loc))
#loc50 = loc("ignore_index"(#loc))
#loc51 = loc("total_classes"(#loc))
#loc52 = loc("class_start_idx"(#loc))
#loc53 = loc("n_cols"(#loc))
#loc54 = loc("logits_row_stride"(#loc))
#loc55 = loc("dlogits_row_stride"(#loc))
module {
  tt.func public @cross_entropy_bwd_kernel(%dlogits_ptr: !tt.ptr<f32> {tt.divisibility = 16 : i32} loc("dlogits_ptr"(#loc)), %dloss_ptr: !tt.ptr<f32> {tt.divisibility = 16 : i32} loc("dloss_ptr"(#loc)), %logits_ptr: !tt.ptr<f32> {tt.divisibility = 16 : i32} loc("logits_ptr"(#loc)), %lse_ptr: !tt.ptr<f32> {tt.divisibility = 16 : i32} loc("lse_ptr"(#loc)), %labels_ptr: !tt.ptr<i64> {tt.divisibility = 16 : i32} loc("labels_ptr"(#loc)), %smoothing: f32 loc("smoothing"(#loc)), %logit_scale: f32 loc("logit_scale"(#loc)), %lse_square_scale: f32 loc("lse_square_scale"(#loc)), %ignore_index: i32 loc("ignore_index"(#loc)), %total_classes: i32 {tt.divisibility = 16 : i32} loc("total_classes"(#loc)), %class_start_idx: i32 {tt.divisibility = 16 : i32} loc("class_start_idx"(#loc)), %n_cols: i32 {tt.divisibility = 16 : i32} loc("n_cols"(#loc)), %logits_row_stride: i32 {tt.divisibility = 16 : i32} loc("logits_row_stride"(#loc)), %dlogits_row_stride: i32 {tt.divisibility = 16 : i32} loc("dlogits_row_stride"(#loc))) attributes {noinline = false} {
    %row_idx = tt.get_program_id x : i32 loc(#loc56)
    %col_block_idx = tt.get_program_id y : i32 loc(#loc57)
    %logits_ptr_0 = arith.extsi %logits_row_stride : i32 to i64 loc(#loc58)
    %logits_ptr_1 = arith.extsi %row_idx : i32 to i64 loc(#loc59)
    %logits_ptr_2 = arith.muli %logits_ptr_1, %logits_ptr_0 : i64 loc(#loc59)
    %logits_ptr_3 = tt.addptr %logits_ptr, %logits_ptr_2 : !tt.ptr<f32>, i64 loc(#loc60)
    %dlogits_ptr_4 = arith.extsi %dlogits_row_stride : i32 to i64 loc(#loc61)
    %dlogits_ptr_5 = arith.extsi %row_idx : i32 to i64 loc(#loc62)
    %dlogits_ptr_6 = arith.muli %dlogits_ptr_5, %dlogits_ptr_4 : i64 loc(#loc62)
    %dlogits_ptr_7 = tt.addptr %dlogits_ptr, %dlogits_ptr_6 : !tt.ptr<f32>, i64 loc(#loc63)
    %col_offsets = arith.constant 4096 : i32 loc(#loc64)
    %col_offsets_8 = arith.constant 4096 : i32 loc(#loc64)
    %col_offsets_9 = arith.extsi %col_block_idx : i32 to i64 loc(#loc64)
    %col_offsets_10 = arith.extsi %col_offsets_8 : i32 to i64 loc(#loc64)
    %col_offsets_11 = arith.muli %col_offsets_9, %col_offsets_10 : i64 loc(#loc64)
    %col_offsets_12 = arith.constant 2147483647 : i64 loc(#loc64)
    %col_offsets_13 = arith.constant -2147483648 : i64 loc(#loc64)
    %col_offsets_14 = arith.cmpi sle, %col_offsets_11, %col_offsets_12 : i64 loc(#loc64)
    %col_offsets_15 = arith.cmpi sge, %col_offsets_11, %col_offsets_13 : i64 loc(#loc64)
    %col_offsets_16 = arith.andi %col_offsets_14, %col_offsets_15 : i1 loc(#loc64)
    %col_offsets_17 = arith.muli %col_block_idx, %col_offsets_8 : i32 loc(#loc64)
    %col_offsets_18 = tt.make_range {end = 4096 : i32, start = 0 : i32} : tensor<4096xi32> loc(#loc65)
    %col_offsets_19 = tt.splat %col_offsets_17 : i32 -> tensor<4096xi32> loc(#loc66)
    %col_offsets_20 = arith.extsi %col_offsets_19 : tensor<4096xi32> to tensor<4096xi64> loc(#loc66)
    %col_offsets_21 = arith.extsi %col_offsets_18 : tensor<4096xi32> to tensor<4096xi64> loc(#loc66)
    %col_offsets_22 = arith.addi %col_offsets_20, %col_offsets_21 : tensor<4096xi64> loc(#loc66)
    %col_offsets_23 = arith.constant 2147483647 : i64 loc(#loc66)
    %col_offsets_24 = arith.constant -2147483648 : i64 loc(#loc66)
    %col_offsets_25 = arith.constant dense<2147483647> : tensor<4096xi64> loc(#loc66)
    %col_offsets_26 = arith.cmpi sle, %col_offsets_22, %col_offsets_25 : tensor<4096xi64> loc(#loc66)
    %col_offsets_27 = arith.constant dense<-2147483648> : tensor<4096xi64> loc(#loc66)
    %col_offsets_28 = arith.cmpi sge, %col_offsets_22, %col_offsets_27 : tensor<4096xi64> loc(#loc66)
    %col_offsets_29 = arith.andi %col_offsets_26, %col_offsets_28 : tensor<4096xi1> loc(#loc66)
    %col_offsets_30 = arith.addi %col_offsets_19, %col_offsets_18 : tensor<4096xi32> loc(#loc66)
    %label_idx = tt.addptr %labels_ptr, %row_idx : !tt.ptr<i64>, i32 loc(#loc67)
    %label_idx_31 = tt.load %label_idx : !tt.ptr<i64> loc(#loc68)
    %0 = arith.extsi %ignore_index : i32 to i64 loc(#loc14)
    %1 = arith.cmpi ne, %label_idx_31, %0 : i64 loc(#loc14)
    %2 = scf.if %1 -> (f32) {
      %dloss = arith.constant 1 : i32 loc(#loc69)
      %dloss_60 = arith.constant 1 : i32 loc(#loc69)
      %dloss_61 = arith.extsi %row_idx : i32 to i64 loc(#loc69)
      %dloss_62 = arith.extsi %dloss_60 : i32 to i64 loc(#loc69)
      %dloss_63 = arith.muli %dloss_61, %dloss_62 : i64 loc(#loc69)
      %dloss_64 = arith.constant 2147483647 : i64 loc(#loc69)
      %dloss_65 = arith.constant -2147483648 : i64 loc(#loc69)
      %dloss_66 = arith.cmpi sle, %dloss_63, %dloss_64 : i64 loc(#loc69)
      %dloss_67 = arith.cmpi sge, %dloss_63, %dloss_65 : i64 loc(#loc69)
      %dloss_68 = arith.andi %dloss_66, %dloss_67 : i1 loc(#loc69)
      %dloss_69 = arith.muli %row_idx, %dloss_60 : i32 loc(#loc69)
      %dloss_70 = tt.addptr %dloss_ptr, %dloss_69 : !tt.ptr<f32>, i32 loc(#loc70)
      %dloss_71 = tt.load %dloss_70 : !tt.ptr<f32> loc(#loc89)
      scf.yield %dloss_71 : f32 loc(#loc89)
    } else {
      %dloss = arith.constant 0.000000e+00 : f32 loc(#loc90)
      scf.yield %dloss : f32 loc(#loc72)
    } loc(#loc15)
    %logits = tt.splat %n_cols : i32 -> tensor<4096xi32> loc(#loc73)
    %logits_32 = arith.cmpi slt, %col_offsets_30, %logits : tensor<4096xi32> loc(#loc73)
    %logits_33 = tt.splat %logits_ptr_3 : !tt.ptr<f32> -> tensor<4096x!tt.ptr<f32>> loc(#loc74)
    %logits_34 = tt.addptr %logits_33, %col_offsets_30 : tensor<4096x!tt.ptr<f32>>, tensor<4096xi32> loc(#loc74)
    %logits_35 = arith.constant 0xFF800000 : f32 loc(#loc75)
    %logits_36 = arith.constant dense<0xFF800000> : tensor<4096xf32> loc(#loc75)
    %logits_37 = tt.load %logits_34, %logits_32, %logits_36 : tensor<4096x!tt.ptr<f32>> loc(#loc75)
    %logits_38 = tt.splat %logit_scale : f32 -> tensor<4096xf32> loc(#loc76)
    %logits_39 = arith.mulf %logits_37, %logits_38 : tensor<4096xf32> loc(#loc76)
    %lse = tt.addptr %lse_ptr, %row_idx : !tt.ptr<f32>, i32 loc(#loc77)
    %lse_40 = tt.load %lse : !tt.ptr<f32> loc(#loc78)
    %probs = tt.splat %lse_40 : f32 -> tensor<4096xf32> loc(#loc79)
    %probs_41 = arith.subf %logits_39, %probs : tensor<4096xf32> loc(#loc79)
    %probs_42 = math.exp %probs_41 : tensor<4096xf32> loc(#loc80)
    %probs_43 = arith.constant 2.000000e+00 : f32 loc(#loc81)
    %probs_44 = arith.constant 2.000000e+00 : f32 loc(#loc81)
    %probs_45 = arith.mulf %probs_44, %lse_square_scale : f32 loc(#loc81)
    %probs_46 = arith.mulf %probs_45, %lse_40 : f32 loc(#loc82)
    %probs_47 = tt.splat %probs_46 : f32 -> tensor<4096xf32> loc(#loc83)
    %probs_48 = arith.mulf %probs_47, %probs_42 : tensor<4096xf32> loc(#loc83)
    %probs_49 = arith.addf %probs_42, %probs_48 : tensor<4096xf32> loc(#loc84)
    %label_idx_50 = arith.extsi %class_start_idx : i32 to i64 loc(#loc85)
    %label_idx_51 = arith.subi %label_idx_31, %label_idx_50 : i64 loc(#loc85)
    %probs_52 = arith.extsi %col_offsets_30 : tensor<4096xi32> to tensor<4096xi64> loc(#loc86)
    %probs_53 = tt.splat %label_idx_51 : i64 -> tensor<4096xi64> loc(#loc86)
    %probs_54 = arith.cmpi eq, %probs_52, %probs_53 : tensor<4096xi64> loc(#loc86)
    %probs_55 = arith.constant 1.000000e+00 : f32 loc(#loc87)
    %probs_56 = arith.constant 1.000000e+00 : f32 loc(#loc87)
    %probs_57 = arith.constant dense<1.000000e+00> : tensor<4096xf32> loc(#loc87)
    %probs_58 = arith.subf %probs_49, %probs_57 : tensor<4096xf32> loc(#loc87)
    %probs_59 = arith.select %probs_54, %probs_58, %probs_49 : tensor<4096xi1>, tensor<4096xf32> loc(#loc88)
    %3 = tt.splat %n_cols : i32 -> tensor<4096xi32> loc(#loc36)
    %4 = arith.cmpi slt, %col_offsets_30, %3 : tensor<4096xi32> loc(#loc36)
    %5 = tt.splat %dlogits_ptr_7 : !tt.ptr<f32> -> tensor<4096x!tt.ptr<f32>> loc(#loc37)
    %6 = tt.addptr %5, %col_offsets_30 : tensor<4096x!tt.ptr<f32>>, tensor<4096xi32> loc(#loc37)
    %7 = arith.mulf %2, %logit_scale : f32 loc(#loc38)
    %8 = tt.splat %7 : f32 -> tensor<4096xf32> loc(#loc39)
    %9 = arith.mulf %8, %probs_59 : tensor<4096xf32> loc(#loc39)
    tt.store %6, %9, %4 : tensor<4096x!tt.ptr<f32>> loc(#loc40)
    tt.return loc(#loc41)
  } loc(#loc)
} loc(#loc)
#loc1 = loc("/home/ubuntu/miniconda3/envs/llm/lib/python3.12/site-packages/flash_attn/ops/triton/cross_entropy.py":123:28)
#loc2 = loc("/home/ubuntu/miniconda3/envs/llm/lib/python3.12/site-packages/flash_attn/ops/triton/cross_entropy.py":124:34)
#loc3 = loc("/home/ubuntu/miniconda3/envs/llm/lib/python3.12/site-packages/flash_attn/ops/triton/cross_entropy.py":125:61)
#loc4 = loc("/home/ubuntu/miniconda3/envs/llm/lib/python3.12/site-packages/flash_attn/ops/triton/cross_entropy.py":125:40)
#loc5 = loc("/home/ubuntu/miniconda3/envs/llm/lib/python3.12/site-packages/flash_attn/ops/triton/cross_entropy.py":125:30)
#loc6 = loc("/home/ubuntu/miniconda3/envs/llm/lib/python3.12/site-packages/flash_attn/ops/triton/cross_entropy.py":126:64)
#loc7 = loc("/home/ubuntu/miniconda3/envs/llm/lib/python3.12/site-packages/flash_attn/ops/triton/cross_entropy.py":126:42)
#loc8 = loc("/home/ubuntu/miniconda3/envs/llm/lib/python3.12/site-packages/flash_attn/ops/triton/cross_entropy.py":126:32)
#loc9 = loc("/home/ubuntu/miniconda3/envs/llm/lib/python3.12/site-packages/flash_attn/ops/triton/cross_entropy.py":127:34)
#loc10 = loc("/home/ubuntu/miniconda3/envs/llm/lib/python3.12/site-packages/flash_attn/ops/triton/cross_entropy.py":127:60)
#loc11 = loc("/home/ubuntu/miniconda3/envs/llm/lib/python3.12/site-packages/flash_attn/ops/triton/cross_entropy.py":127:47)
#loc12 = loc("/home/ubuntu/miniconda3/envs/llm/lib/python3.12/site-packages/flash_attn/ops/triton/cross_entropy.py":128:37)
#loc13 = loc("/home/ubuntu/miniconda3/envs/llm/lib/python3.12/site-packages/flash_attn/ops/triton/cross_entropy.py":128:24)
#loc14 = loc("/home/ubuntu/miniconda3/envs/llm/lib/python3.12/site-packages/flash_attn/ops/triton/cross_entropy.py":129:20)
#loc15 = loc("/home/ubuntu/miniconda3/envs/llm/lib/python3.12/site-packages/flash_attn/ops/triton/cross_entropy.py":129:7)
#loc16 = loc("/home/ubuntu/miniconda3/envs/llm/lib/python3.12/site-packages/flash_attn/ops/triton/cross_entropy.py":130:46)
#loc17 = loc("/home/ubuntu/miniconda3/envs/llm/lib/python3.12/site-packages/flash_attn/ops/triton/cross_entropy.py":130:36)
#loc18 = loc("/home/ubuntu/miniconda3/envs/llm/lib/python3.12/site-packages/flash_attn/ops/triton/cross_entropy.py":130:24)
#loc19 = loc("/home/ubuntu/miniconda3/envs/llm/lib/python3.12/site-packages/flash_attn/ops/triton/cross_entropy.py":132:16)
#loc20 = loc("/home/ubuntu/miniconda3/envs/llm/lib/python3.12/site-packages/flash_attn/ops/triton/cross_entropy.py":133:66)
#loc21 = loc("/home/ubuntu/miniconda3/envs/llm/lib/python3.12/site-packages/flash_attn/ops/triton/cross_entropy.py":133:34)
#loc22 = loc("/home/ubuntu/miniconda3/envs/llm/lib/python3.12/site-packages/flash_attn/ops/triton/cross_entropy.py":133:21)
#loc23 = loc("/home/ubuntu/miniconda3/envs/llm/lib/python3.12/site-packages/flash_attn/ops/triton/cross_entropy.py":135:8)
#loc24 = loc("/home/ubuntu/miniconda3/envs/llm/lib/python3.12/site-packages/flash_attn/ops/triton/cross_entropy.py":136:28)
#loc25 = loc("/home/ubuntu/miniconda3/envs/llm/lib/python3.12/site-packages/flash_attn/ops/triton/cross_entropy.py":136:18)
#loc26 = loc("/home/ubuntu/miniconda3/envs/llm/lib/python3.12/site-packages/flash_attn/ops/triton/cross_entropy.py":137:28)
#loc27 = loc("/home/ubuntu/miniconda3/envs/llm/lib/python3.12/site-packages/flash_attn/ops/triton/cross_entropy.py":137:19)
#loc28 = loc("/home/ubuntu/miniconda3/envs/llm/lib/python3.12/site-packages/flash_attn/ops/triton/cross_entropy.py":138:19)
#loc29 = loc("/home/ubuntu/miniconda3/envs/llm/lib/python3.12/site-packages/flash_attn/ops/triton/cross_entropy.py":138:38)
#loc30 = loc("/home/ubuntu/miniconda3/envs/llm/lib/python3.12/site-packages/flash_attn/ops/triton/cross_entropy.py":138:44)
#loc31 = loc("/home/ubuntu/miniconda3/envs/llm/lib/python3.12/site-packages/flash_attn/ops/triton/cross_entropy.py":138:13)
#loc32 = loc("/home/ubuntu/miniconda3/envs/llm/lib/python3.12/site-packages/flash_attn/ops/triton/cross_entropy.py":139:17)
#loc33 = loc("/home/ubuntu/miniconda3/envs/llm/lib/python3.12/site-packages/flash_attn/ops/triton/cross_entropy.py":145:40)
#loc34 = loc("/home/ubuntu/miniconda3/envs/llm/lib/python3.12/site-packages/flash_attn/ops/triton/cross_entropy.py":145:59)
#loc35 = loc("/home/ubuntu/miniconda3/envs/llm/lib/python3.12/site-packages/flash_attn/ops/triton/cross_entropy.py":145:64)
#loc36 = loc("/home/ubuntu/miniconda3/envs/llm/lib/python3.12/site-packages/flash_attn/ops/triton/cross_entropy.py":146:90)
#loc37 = loc("/home/ubuntu/miniconda3/envs/llm/lib/python3.12/site-packages/flash_attn/ops/triton/cross_entropy.py":146:27)
#loc38 = loc("/home/ubuntu/miniconda3/envs/llm/lib/python3.12/site-packages/flash_attn/ops/triton/cross_entropy.py":146:49)
#loc39 = loc("/home/ubuntu/miniconda3/envs/llm/lib/python3.12/site-packages/flash_attn/ops/triton/cross_entropy.py":146:64)
#loc40 = loc("/home/ubuntu/miniconda3/envs/llm/lib/python3.12/site-packages/flash_attn/ops/triton/cross_entropy.py":146:40)
#loc41 = loc("/home/ubuntu/miniconda3/envs/llm/lib/python3.12/site-packages/flash_attn/ops/triton/cross_entropy.py":146:4)
#loc56 = loc("row_idx"(#loc1))
#loc57 = loc("col_block_idx"(#loc2))
#loc58 = loc("logits_ptr"(#loc3))
#loc59 = loc("logits_ptr"(#loc4))
#loc60 = loc("logits_ptr"(#loc5))
#loc61 = loc("dlogits_ptr"(#loc6))
#loc62 = loc("dlogits_ptr"(#loc7))
#loc63 = loc("dlogits_ptr"(#loc8))
#loc64 = loc("col_offsets"(#loc9))
#loc65 = loc("col_offsets"(#loc10))
#loc66 = loc("col_offsets"(#loc11))
#loc67 = loc("label_idx"(#loc12))
#loc68 = loc("label_idx"(#loc13))
#loc69 = loc("dloss"(#loc16))
#loc70 = loc("dloss"(#loc17))
#loc71 = loc("dloss"(#loc18))
#loc72 = loc("dloss"(#loc19))
#loc73 = loc("logits"(#loc20))
#loc74 = loc("logits"(#loc21))
#loc75 = loc("logits"(#loc22))
#loc76 = loc("logits"(#loc23))
#loc77 = loc("lse"(#loc24))
#loc78 = loc("lse"(#loc25))
#loc79 = loc("probs"(#loc26))
#loc80 = loc("probs"(#loc27))
#loc81 = loc("probs"(#loc28))
#loc82 = loc("probs"(#loc29))
#loc83 = loc("probs"(#loc30))
#loc84 = loc("probs"(#loc31))
#loc85 = loc("label_idx"(#loc32))
#loc86 = loc("probs"(#loc33))
#loc87 = loc("probs"(#loc34))
#loc88 = loc("probs"(#loc35))
#loc89 = loc("dloss"(#loc71))
#loc90 = loc("dloss"(#loc72))
