#loc = loc("/home/ubuntu/miniconda3/envs/llm/lib/python3.12/site-packages/flash_attn/ops/triton/cross_entropy.py":104:0)
#loc41 = loc("dlogits_ptr"(#loc))
#loc42 = loc("dloss_ptr"(#loc))
#loc43 = loc("logits_ptr"(#loc))
#loc44 = loc("lse_ptr"(#loc))
#loc45 = loc("labels_ptr"(#loc))
#loc46 = loc("smoothing"(#loc))
#loc47 = loc("logit_scale"(#loc))
#loc48 = loc("lse_square_scale"(#loc))
#loc49 = loc("ignore_index"(#loc))
#loc50 = loc("total_classes"(#loc))
#loc51 = loc("class_start_idx"(#loc))
#loc52 = loc("n_cols"(#loc))
#loc53 = loc("logits_row_stride"(#loc))
#loc54 = loc("dlogits_row_stride"(#loc))
module {
  tt.func public @cross_entropy_bwd_kernel(%dlogits_ptr: !tt.ptr<f32> {tt.divisibility = 16 : i32} loc("dlogits_ptr"(#loc)), %dloss_ptr: !tt.ptr<f32> {tt.divisibility = 16 : i32} loc("dloss_ptr"(#loc)), %logits_ptr: !tt.ptr<f32> {tt.divisibility = 16 : i32} loc("logits_ptr"(#loc)), %lse_ptr: !tt.ptr<f32> {tt.divisibility = 16 : i32} loc("lse_ptr"(#loc)), %labels_ptr: !tt.ptr<i64> {tt.divisibility = 16 : i32} loc("labels_ptr"(#loc)), %smoothing: f32 loc("smoothing"(#loc)), %logit_scale: f32 loc("logit_scale"(#loc)), %lse_square_scale: f32 loc("lse_square_scale"(#loc)), %ignore_index: i32 loc("ignore_index"(#loc)), %total_classes: i32 {tt.divisibility = 16 : i32} loc("total_classes"(#loc)), %class_start_idx: i32 {tt.divisibility = 16 : i32} loc("class_start_idx"(#loc)), %n_cols: i32 {tt.divisibility = 16 : i32} loc("n_cols"(#loc)), %logits_row_stride: i32 {tt.divisibility = 16 : i32} loc("logits_row_stride"(#loc)), %dlogits_row_stride: i32 {tt.divisibility = 16 : i32} loc("dlogits_row_stride"(#loc))) attributes {noinline = false} {
    %probs = arith.constant dense<1.000000e+00> : tensor<4096xf32> loc(#loc55)
    %cst = arith.constant 2.000000e+00 : f32 loc(#loc2)
    %logits = arith.constant dense<0xFF800000> : tensor<4096xf32> loc(#loc56)
    %cst_0 = arith.constant 0.000000e+00 : f32 loc(#loc2)
    %c4096_i32 = arith.constant 4096 : i32 loc(#loc2)
    %row_idx = tt.get_program_id x : i32 loc(#loc57)
    %col_block_idx = tt.get_program_id y : i32 loc(#loc58)
    %logits_ptr_1 = arith.extsi %logits_row_stride : i32 to i64 loc(#loc59)
    %logits_ptr_2 = arith.extsi %row_idx : i32 to i64 loc(#loc60)
    %logits_ptr_3 = arith.muli %logits_ptr_2, %logits_ptr_1 : i64 loc(#loc60)
    %logits_ptr_4 = tt.addptr %logits_ptr, %logits_ptr_3 : !tt.ptr<f32>, i64 loc(#loc61)
    %dlogits_ptr_5 = arith.extsi %dlogits_row_stride : i32 to i64 loc(#loc62)
    %dlogits_ptr_6 = arith.muli %logits_ptr_2, %dlogits_ptr_5 : i64 loc(#loc63)
    %dlogits_ptr_7 = tt.addptr %dlogits_ptr, %dlogits_ptr_6 : !tt.ptr<f32>, i64 loc(#loc64)
    %col_offsets = arith.muli %col_block_idx, %c4096_i32 : i32 loc(#loc65)
    %col_offsets_8 = tt.make_range {end = 4096 : i32, start = 0 : i32} : tensor<4096xi32> loc(#loc66)
    %col_offsets_9 = tt.splat %col_offsets : i32 -> tensor<4096xi32> loc(#loc67)
    %col_offsets_10 = arith.addi %col_offsets_9, %col_offsets_8 : tensor<4096xi32> loc(#loc67)
    %label_idx = tt.addptr %labels_ptr, %row_idx : !tt.ptr<i64>, i32 loc(#loc68)
    %label_idx_11 = tt.load %label_idx : !tt.ptr<i64> loc(#loc69)
    %0 = arith.extsi %ignore_index : i32 to i64 loc(#loc17)
    %1 = arith.cmpi ne, %label_idx_11, %0 : i64 loc(#loc17)
    %2 = scf.if %1 -> (f32) {
      %dloss = tt.addptr %dloss_ptr, %row_idx : !tt.ptr<f32>, i32 loc(#loc70)
      %dloss_35 = tt.load %dloss : !tt.ptr<f32> loc(#loc87)
      scf.yield %dloss_35 : f32 loc(#loc87)
    } else {
      scf.yield %cst_0 : f32 loc(#loc72)
    } loc(#loc18)
    %logits_12 = tt.splat %n_cols : i32 -> tensor<4096xi32> loc(#loc73)
    %logits_13 = arith.cmpi slt, %col_offsets_10, %logits_12 : tensor<4096xi32> loc(#loc73)
    %logits_14 = tt.splat %logits_ptr_4 : !tt.ptr<f32> -> tensor<4096x!tt.ptr<f32>> loc(#loc74)
    %logits_15 = tt.addptr %logits_14, %col_offsets_10 : tensor<4096x!tt.ptr<f32>>, tensor<4096xi32> loc(#loc74)
    %logits_16 = tt.load %logits_15, %logits_13, %logits : tensor<4096x!tt.ptr<f32>> loc(#loc56)
    %logits_17 = tt.splat %logit_scale : f32 -> tensor<4096xf32> loc(#loc75)
    %logits_18 = arith.mulf %logits_16, %logits_17 : tensor<4096xf32> loc(#loc75)
    %lse = tt.addptr %lse_ptr, %row_idx : !tt.ptr<f32>, i32 loc(#loc76)
    %lse_19 = tt.load %lse : !tt.ptr<f32> loc(#loc77)
    %probs_20 = tt.splat %lse_19 : f32 -> tensor<4096xf32> loc(#loc78)
    %probs_21 = arith.subf %logits_18, %probs_20 : tensor<4096xf32> loc(#loc78)
    %probs_22 = math.exp %probs_21 : tensor<4096xf32> loc(#loc79)
    %probs_23 = arith.mulf %lse_square_scale, %cst : f32 loc(#loc80)
    %probs_24 = arith.mulf %probs_23, %lse_19 : f32 loc(#loc81)
    %probs_25 = tt.splat %probs_24 : f32 -> tensor<4096xf32> loc(#loc82)
    %probs_26 = arith.mulf %probs_25, %probs_22 : tensor<4096xf32> loc(#loc82)
    %probs_27 = arith.addf %probs_22, %probs_26 : tensor<4096xf32> loc(#loc83)
    %label_idx_28 = arith.extsi %class_start_idx : i32 to i64 loc(#loc84)
    %label_idx_29 = arith.subi %label_idx_11, %label_idx_28 : i64 loc(#loc84)
    %probs_30 = arith.extsi %col_offsets_10 : tensor<4096xi32> to tensor<4096xi64> loc(#loc85)
    %probs_31 = tt.splat %label_idx_29 : i64 -> tensor<4096xi64> loc(#loc85)
    %probs_32 = arith.cmpi eq, %probs_30, %probs_31 : tensor<4096xi64> loc(#loc85)
    %probs_33 = arith.subf %probs_27, %probs : tensor<4096xf32> loc(#loc55)
    %probs_34 = arith.select %probs_32, %probs_33, %probs_27 : tensor<4096xi1>, tensor<4096xf32> loc(#loc86)
    %3 = tt.splat %dlogits_ptr_7 : !tt.ptr<f32> -> tensor<4096x!tt.ptr<f32>> loc(#loc36)
    %4 = tt.addptr %3, %col_offsets_10 : tensor<4096x!tt.ptr<f32>>, tensor<4096xi32> loc(#loc36)
    %5 = arith.mulf %2, %logit_scale : f32 loc(#loc37)
    %6 = tt.splat %5 : f32 -> tensor<4096xf32> loc(#loc38)
    %7 = arith.mulf %6, %probs_34 : tensor<4096xf32> loc(#loc38)
    tt.store %4, %7, %logits_13 : tensor<4096x!tt.ptr<f32>> loc(#loc39)
    tt.return loc(#loc40)
  } loc(#loc)
} loc(#loc)
#loc1 = loc("/home/ubuntu/miniconda3/envs/llm/lib/python3.12/site-packages/flash_attn/ops/triton/cross_entropy.py":145:59)
#loc2 = loc(unknown)
#loc3 = loc("/home/ubuntu/miniconda3/envs/llm/lib/python3.12/site-packages/flash_attn/ops/triton/cross_entropy.py":133:21)
#loc4 = loc("/home/ubuntu/miniconda3/envs/llm/lib/python3.12/site-packages/flash_attn/ops/triton/cross_entropy.py":123:28)
#loc5 = loc("/home/ubuntu/miniconda3/envs/llm/lib/python3.12/site-packages/flash_attn/ops/triton/cross_entropy.py":124:34)
#loc6 = loc("/home/ubuntu/miniconda3/envs/llm/lib/python3.12/site-packages/flash_attn/ops/triton/cross_entropy.py":125:61)
#loc7 = loc("/home/ubuntu/miniconda3/envs/llm/lib/python3.12/site-packages/flash_attn/ops/triton/cross_entropy.py":125:40)
#loc8 = loc("/home/ubuntu/miniconda3/envs/llm/lib/python3.12/site-packages/flash_attn/ops/triton/cross_entropy.py":125:30)
#loc9 = loc("/home/ubuntu/miniconda3/envs/llm/lib/python3.12/site-packages/flash_attn/ops/triton/cross_entropy.py":126:64)
#loc10 = loc("/home/ubuntu/miniconda3/envs/llm/lib/python3.12/site-packages/flash_attn/ops/triton/cross_entropy.py":126:42)
#loc11 = loc("/home/ubuntu/miniconda3/envs/llm/lib/python3.12/site-packages/flash_attn/ops/triton/cross_entropy.py":126:32)
#loc12 = loc("/home/ubuntu/miniconda3/envs/llm/lib/python3.12/site-packages/flash_attn/ops/triton/cross_entropy.py":127:34)
#loc13 = loc("/home/ubuntu/miniconda3/envs/llm/lib/python3.12/site-packages/flash_attn/ops/triton/cross_entropy.py":127:60)
#loc14 = loc("/home/ubuntu/miniconda3/envs/llm/lib/python3.12/site-packages/flash_attn/ops/triton/cross_entropy.py":127:47)
#loc15 = loc("/home/ubuntu/miniconda3/envs/llm/lib/python3.12/site-packages/flash_attn/ops/triton/cross_entropy.py":128:37)
#loc16 = loc("/home/ubuntu/miniconda3/envs/llm/lib/python3.12/site-packages/flash_attn/ops/triton/cross_entropy.py":128:24)
#loc17 = loc("/home/ubuntu/miniconda3/envs/llm/lib/python3.12/site-packages/flash_attn/ops/triton/cross_entropy.py":129:20)
#loc18 = loc("/home/ubuntu/miniconda3/envs/llm/lib/python3.12/site-packages/flash_attn/ops/triton/cross_entropy.py":129:7)
#loc19 = loc("/home/ubuntu/miniconda3/envs/llm/lib/python3.12/site-packages/flash_attn/ops/triton/cross_entropy.py":130:36)
#loc20 = loc("/home/ubuntu/miniconda3/envs/llm/lib/python3.12/site-packages/flash_attn/ops/triton/cross_entropy.py":130:24)
#loc21 = loc("/home/ubuntu/miniconda3/envs/llm/lib/python3.12/site-packages/flash_attn/ops/triton/cross_entropy.py":132:16)
#loc22 = loc("/home/ubuntu/miniconda3/envs/llm/lib/python3.12/site-packages/flash_attn/ops/triton/cross_entropy.py":133:66)
#loc23 = loc("/home/ubuntu/miniconda3/envs/llm/lib/python3.12/site-packages/flash_attn/ops/triton/cross_entropy.py":133:34)
#loc24 = loc("/home/ubuntu/miniconda3/envs/llm/lib/python3.12/site-packages/flash_attn/ops/triton/cross_entropy.py":135:8)
#loc25 = loc("/home/ubuntu/miniconda3/envs/llm/lib/python3.12/site-packages/flash_attn/ops/triton/cross_entropy.py":136:28)
#loc26 = loc("/home/ubuntu/miniconda3/envs/llm/lib/python3.12/site-packages/flash_attn/ops/triton/cross_entropy.py":136:18)
#loc27 = loc("/home/ubuntu/miniconda3/envs/llm/lib/python3.12/site-packages/flash_attn/ops/triton/cross_entropy.py":137:28)
#loc28 = loc("/home/ubuntu/miniconda3/envs/llm/lib/python3.12/site-packages/flash_attn/ops/triton/cross_entropy.py":137:19)
#loc29 = loc("/home/ubuntu/miniconda3/envs/llm/lib/python3.12/site-packages/flash_attn/ops/triton/cross_entropy.py":138:19)
#loc30 = loc("/home/ubuntu/miniconda3/envs/llm/lib/python3.12/site-packages/flash_attn/ops/triton/cross_entropy.py":138:38)
#loc31 = loc("/home/ubuntu/miniconda3/envs/llm/lib/python3.12/site-packages/flash_attn/ops/triton/cross_entropy.py":138:44)
#loc32 = loc("/home/ubuntu/miniconda3/envs/llm/lib/python3.12/site-packages/flash_attn/ops/triton/cross_entropy.py":138:13)
#loc33 = loc("/home/ubuntu/miniconda3/envs/llm/lib/python3.12/site-packages/flash_attn/ops/triton/cross_entropy.py":139:17)
#loc34 = loc("/home/ubuntu/miniconda3/envs/llm/lib/python3.12/site-packages/flash_attn/ops/triton/cross_entropy.py":145:40)
#loc35 = loc("/home/ubuntu/miniconda3/envs/llm/lib/python3.12/site-packages/flash_attn/ops/triton/cross_entropy.py":145:64)
#loc36 = loc("/home/ubuntu/miniconda3/envs/llm/lib/python3.12/site-packages/flash_attn/ops/triton/cross_entropy.py":146:27)
#loc37 = loc("/home/ubuntu/miniconda3/envs/llm/lib/python3.12/site-packages/flash_attn/ops/triton/cross_entropy.py":146:49)
#loc38 = loc("/home/ubuntu/miniconda3/envs/llm/lib/python3.12/site-packages/flash_attn/ops/triton/cross_entropy.py":146:64)
#loc39 = loc("/home/ubuntu/miniconda3/envs/llm/lib/python3.12/site-packages/flash_attn/ops/triton/cross_entropy.py":146:40)
#loc40 = loc("/home/ubuntu/miniconda3/envs/llm/lib/python3.12/site-packages/flash_attn/ops/triton/cross_entropy.py":146:4)
#loc55 = loc("probs"(#loc1))
#loc56 = loc("logits"(#loc3))
#loc57 = loc("row_idx"(#loc4))
#loc58 = loc("col_block_idx"(#loc5))
#loc59 = loc("logits_ptr"(#loc6))
#loc60 = loc("logits_ptr"(#loc7))
#loc61 = loc("logits_ptr"(#loc8))
#loc62 = loc("dlogits_ptr"(#loc9))
#loc63 = loc("dlogits_ptr"(#loc10))
#loc64 = loc("dlogits_ptr"(#loc11))
#loc65 = loc("col_offsets"(#loc12))
#loc66 = loc("col_offsets"(#loc13))
#loc67 = loc("col_offsets"(#loc14))
#loc68 = loc("label_idx"(#loc15))
#loc69 = loc("label_idx"(#loc16))
#loc70 = loc("dloss"(#loc19))
#loc71 = loc("dloss"(#loc20))
#loc72 = loc("dloss"(#loc21))
#loc73 = loc("logits"(#loc22))
#loc74 = loc("logits"(#loc23))
#loc75 = loc("logits"(#loc24))
#loc76 = loc("lse"(#loc25))
#loc77 = loc("lse"(#loc26))
#loc78 = loc("probs"(#loc27))
#loc79 = loc("probs"(#loc28))
#loc80 = loc("probs"(#loc29))
#loc81 = loc("probs"(#loc30))
#loc82 = loc("probs"(#loc31))
#loc83 = loc("probs"(#loc32))
#loc84 = loc("label_idx"(#loc33))
#loc85 = loc("probs"(#loc34))
#loc86 = loc("probs"(#loc35))
#loc87 = loc("dloss"(#loc71))
