#loc = loc("/home/ubuntu/miniconda3/envs/llm/lib/python3.12/site-packages/vllm/v1/attention/ops/triton_unified_attention.py":57:0)
#loc18 = loc(unknown)
#loc155 = loc("/home/ubuntu/miniconda3/envs/llm/lib/python3.12/site-packages/vllm/v1/attention/ops/triton_unified_attention.py":34:0)
#loc159 = loc("left")
#loc160 = loc("right")
#loc178 = loc("/home/ubuntu/miniconda3/envs/llm/lib/python3.12/site-packages/vllm/v1/attention/ops/triton_unified_attention.py":21:0)
#loc184 = loc("/home/ubuntu/miniconda3/envs/llm/lib/python3.12/site-packages/triton/language/standard.py":175:0)
#loc188 = loc("/home/ubuntu/miniconda3/envs/llm/lib/python3.12/site-packages/triton/language/standard.py":167:0)
#loc192 = loc("/home/ubuntu/miniconda3/envs/llm/lib/python3.12/site-packages/triton/language/standard.py":285:0)
#loc196 = loc("/home/ubuntu/miniconda3/envs/llm/lib/python3.12/site-packages/triton/language/standard.py":260:0)
#loc200 = loc("output_ptr"(#loc))
#loc201 = loc("query_ptr"(#loc))
#loc202 = loc("key_cache_ptr"(#loc))
#loc203 = loc("value_cache_ptr"(#loc))
#loc204 = loc("block_tables_ptr"(#loc))
#loc205 = loc("seq_lens_ptr"(#loc))
#loc206 = loc("scale"(#loc))
#loc207 = loc("k_scale"(#loc))
#loc208 = loc("v_scale"(#loc))
#loc209 = loc("out_scale"(#loc))
#loc210 = loc("softcap"(#loc))
#loc211 = loc("block_table_stride"(#loc))
#loc212 = loc("query_stride_0"(#loc))
#loc213 = loc("query_stride_1"(#loc))
#loc214 = loc("output_stride_0"(#loc))
#loc215 = loc("output_stride_1"(#loc))
#loc216 = loc("qq_bias_stride_0"(#loc))
#loc217 = loc("stride_k_cache_0"(#loc))
#loc218 = loc("stride_k_cache_1"(#loc))
#loc219 = loc("stride_k_cache_2"(#loc))
#loc220 = loc("stride_v_cache_0"(#loc))
#loc221 = loc("stride_v_cache_1"(#loc))
#loc222 = loc("stride_v_cache_2"(#loc))
#loc223 = loc("query_start_len_ptr"(#loc))
#loc224 = loc("num_seqs"(#loc))
#loc366 = loc("query_start_len_ptr"(#loc155))
#loc367 = loc("target_idx"(#loc155))
#loc368 = loc("num_seqs"(#loc155))
#loc371 = loc("left"(#loc159))
#loc372 = loc("right"(#loc160))
#loc380 = loc("x"(#loc178))
#loc381 = loc("input"(#loc184))
#loc382 = loc("a"(#loc188))
#loc383 = loc("b"(#loc188))
#loc384 = loc("input"(#loc192))
#loc385 = loc("a"(#loc196))
#loc386 = loc("b"(#loc196))
#loc388 = loc("right"(#loc368))
module {
  tt.func public @kernel_unified_attention_2d(%output_ptr: !tt.ptr<bf16> {tt.divisibility = 16 : i32} loc("output_ptr"(#loc)), %query_ptr: !tt.ptr<bf16> {tt.divisibility = 16 : i32} loc("query_ptr"(#loc)), %key_cache_ptr: !tt.ptr<bf16> {tt.divisibility = 16 : i32} loc("key_cache_ptr"(#loc)), %value_cache_ptr: !tt.ptr<bf16> {tt.divisibility = 16 : i32} loc("value_cache_ptr"(#loc)), %block_tables_ptr: !tt.ptr<i32> {tt.divisibility = 16 : i32} loc("block_tables_ptr"(#loc)), %seq_lens_ptr: !tt.ptr<i32> {tt.divisibility = 16 : i32} loc("seq_lens_ptr"(#loc)), %scale: f32 loc("scale"(#loc)), %k_scale: !tt.ptr<f32> {tt.divisibility = 16 : i32} loc("k_scale"(#loc)), %v_scale: !tt.ptr<f32> {tt.divisibility = 16 : i32} loc("v_scale"(#loc)), %out_scale: f32 loc("out_scale"(#loc)), %softcap: i32 {tt.divisibility = 16 : i32} loc("softcap"(#loc)), %block_table_stride: i64 loc("block_table_stride"(#loc)), %query_stride_0: i64 {tt.divisibility = 16 : i32} loc("query_stride_0"(#loc)), %query_stride_1: i64 {tt.divisibility = 16 : i32} loc("query_stride_1"(#loc)), %output_stride_0: i64 {tt.divisibility = 16 : i32} loc("output_stride_0"(#loc)), %output_stride_1: i64 {tt.divisibility = 16 : i32} loc("output_stride_1"(#loc)), %qq_bias_stride_0: i64 {tt.divisibility = 16 : i32} loc("qq_bias_stride_0"(#loc)), %stride_k_cache_0: i64 {tt.divisibility = 16 : i32} loc("stride_k_cache_0"(#loc)), %stride_k_cache_1: i64 {tt.divisibility = 16 : i32} loc("stride_k_cache_1"(#loc)), %stride_k_cache_2: i64 {tt.divisibility = 16 : i32} loc("stride_k_cache_2"(#loc)), %stride_v_cache_0: i64 {tt.divisibility = 16 : i32} loc("stride_v_cache_0"(#loc)), %stride_v_cache_1: i64 {tt.divisibility = 16 : i32} loc("stride_v_cache_1"(#loc)), %stride_v_cache_2: i64 {tt.divisibility = 16 : i32} loc("stride_v_cache_2"(#loc)), %query_start_len_ptr: !tt.ptr<i32> {tt.divisibility = 16 : i32} loc("query_start_len_ptr"(#loc)), %num_seqs: i32 loc("num_seqs"(#loc))) attributes {noinline = false} {
    %q_block_global_idx = tt.get_program_id x : i32 loc(#loc225)
    %kv_head_idx = tt.get_program_id y : i32 loc(#loc226)
    %seq_idx = tt.call @"vllm.v1.attention.ops.triton_unified_attention.find_seq_idx__Pi32_i32_i32__(3,)cconstexpr_8__(4,)cconstexpr_True_"(%query_start_len_ptr, %q_block_global_idx, %num_seqs) : (!tt.ptr<i32>, i32, i32) -> i32 loc(#loc227)
    %q_block_start_idx = tt.addptr %query_start_len_ptr, %seq_idx : !tt.ptr<i32>, i32 loc(#loc228)
    %q_block_start_idx_0 = tt.load %q_block_start_idx : !tt.ptr<i32> loc(#loc229)
    %q_block_start_idx_1 = arith.constant 8 : i32 loc(#loc230)
    %q_block_start_idx_2 = arith.constant 8 : i32 loc(#loc230)
    %q_block_start_idx_3 = arith.divsi %q_block_start_idx_0, %q_block_start_idx_2 : i32 loc(#loc230)
    %q_block_start_idx_4 = arith.extsi %q_block_start_idx_3 : i32 to i64 loc(#loc231)
    %q_block_start_idx_5 = arith.extsi %seq_idx : i32 to i64 loc(#loc231)
    %q_block_start_idx_6 = arith.addi %q_block_start_idx_4, %q_block_start_idx_5 : i64 loc(#loc231)
    %q_block_start_idx_7 = arith.constant 2147483647 : i64 loc(#loc231)
    %q_block_start_idx_8 = arith.constant -2147483648 : i64 loc(#loc231)
    %q_block_start_idx_9 = arith.cmpi sle, %q_block_start_idx_6, %q_block_start_idx_7 : i64 loc(#loc231)
    %q_block_start_idx_10 = arith.cmpi sge, %q_block_start_idx_6, %q_block_start_idx_8 : i64 loc(#loc231)
    %q_block_start_idx_11 = arith.andi %q_block_start_idx_9, %q_block_start_idx_10 : i1 loc(#loc231)
    %q_block_start_idx_12 = arith.addi %q_block_start_idx_3, %seq_idx : i32 loc(#loc231)
    %q_block_local_idx = arith.extsi %q_block_global_idx : i32 to i64 loc(#loc232)
    %q_block_local_idx_13 = arith.extsi %q_block_start_idx_12 : i32 to i64 loc(#loc232)
    %q_block_local_idx_14 = arith.subi %q_block_local_idx, %q_block_local_idx_13 : i64 loc(#loc232)
    %q_block_local_idx_15 = arith.constant 2147483647 : i64 loc(#loc232)
    %q_block_local_idx_16 = arith.constant -2147483648 : i64 loc(#loc232)
    %q_block_local_idx_17 = arith.cmpi sle, %q_block_local_idx_14, %q_block_local_idx_15 : i64 loc(#loc232)
    %q_block_local_idx_18 = arith.cmpi sge, %q_block_local_idx_14, %q_block_local_idx_16 : i64 loc(#loc232)
    %q_block_local_idx_19 = arith.andi %q_block_local_idx_17, %q_block_local_idx_18 : i1 loc(#loc232)
    %q_block_local_idx_20 = arith.subi %q_block_global_idx, %q_block_start_idx_12 : i32 loc(#loc232)
    %cur_batch_in_all_start_index = tt.addptr %query_start_len_ptr, %seq_idx : !tt.ptr<i32>, i32 loc(#loc233)
    %cur_batch_in_all_start_index_21 = tt.load %cur_batch_in_all_start_index : !tt.ptr<i32> loc(#loc234)
    %cur_batch_in_all_stop_index = tt.addptr %query_start_len_ptr, %seq_idx : !tt.ptr<i32>, i32 loc(#loc235)
    %cur_batch_in_all_stop_index_22 = arith.constant 1 : i32 loc(#loc236)
    %cur_batch_in_all_stop_index_23 = tt.addptr %cur_batch_in_all_stop_index, %cur_batch_in_all_stop_index_22 : !tt.ptr<i32>, i32 loc(#loc236)
    %cur_batch_in_all_stop_index_24 = tt.load %cur_batch_in_all_stop_index_23 : !tt.ptr<i32> loc(#loc237)
    %cur_batch_query_len = arith.extsi %cur_batch_in_all_stop_index_24 : i32 to i64 loc(#loc238)
    %cur_batch_query_len_25 = arith.extsi %cur_batch_in_all_start_index_21 : i32 to i64 loc(#loc238)
    %cur_batch_query_len_26 = arith.subi %cur_batch_query_len, %cur_batch_query_len_25 : i64 loc(#loc238)
    %cur_batch_query_len_27 = arith.constant 2147483647 : i64 loc(#loc238)
    %cur_batch_query_len_28 = arith.constant -2147483648 : i64 loc(#loc238)
    %cur_batch_query_len_29 = arith.cmpi sle, %cur_batch_query_len_26, %cur_batch_query_len_27 : i64 loc(#loc238)
    %cur_batch_query_len_30 = arith.cmpi sge, %cur_batch_query_len_26, %cur_batch_query_len_28 : i64 loc(#loc238)
    %cur_batch_query_len_31 = arith.andi %cur_batch_query_len_29, %cur_batch_query_len_30 : i1 loc(#loc238)
    %cur_batch_query_len_32 = arith.subi %cur_batch_in_all_stop_index_24, %cur_batch_in_all_start_index_21 : i32 loc(#loc238)
    %c8_i32 = arith.constant 8 : i32 loc(#loc15)
    %c8_i32_33 = arith.constant 8 : i32 loc(#loc15)
    %0 = arith.extsi %q_block_local_idx_20 : i32 to i64 loc(#loc15)
    %1 = arith.extsi %c8_i32_33 : i32 to i64 loc(#loc15)
    %2 = arith.muli %0, %1 : i64 loc(#loc15)
    %c2147483647_i64 = arith.constant 2147483647 : i64 loc(#loc15)
    %c-2147483648_i64 = arith.constant -2147483648 : i64 loc(#loc15)
    %3 = arith.cmpi sle, %2, %c2147483647_i64 : i64 loc(#loc15)
    %4 = arith.cmpi sge, %2, %c-2147483648_i64 : i64 loc(#loc15)
    %5 = arith.andi %3, %4 : i1 loc(#loc15)
    %6 = arith.muli %q_block_local_idx_20, %c8_i32_33 : i32 loc(#loc15)
    %7 = arith.cmpi sge, %6, %cur_batch_query_len_32 : i32 loc(#loc16)
    cf.cond_br %7, ^bb1, ^bb2 loc(#loc16)
  ^bb1:  // pred: ^bb0
    tt.return loc(#loc17)
  ^bb2:  // pred: ^bb0
    cf.br ^bb4 loc(#loc18)
  ^bb3:  // no predecessors
    cf.br ^bb4 loc(#loc18)
  ^bb4:  // 2 preds: ^bb2, ^bb3
    %offs_m = tt.make_range {end = 16 : i32, start = 0 : i32} : tensor<16xi32> loc(#loc239)
    %offs_d = tt.make_range {end = 128 : i32, start = 0 : i32} : tensor<128xi32> loc(#loc240)
    %offs_t = tt.make_range {end = 32 : i32, start = 0 : i32} : tensor<32xi32> loc(#loc241)
    %query_pos = arith.constant 8 : i32 loc(#loc242)
    %query_pos_34 = arith.constant 8 : i32 loc(#loc242)
    %query_pos_35 = arith.extsi %q_block_local_idx_20 : i32 to i64 loc(#loc242)
    %query_pos_36 = arith.extsi %query_pos_34 : i32 to i64 loc(#loc242)
    %query_pos_37 = arith.muli %query_pos_35, %query_pos_36 : i64 loc(#loc242)
    %query_pos_38 = arith.constant 2147483647 : i64 loc(#loc242)
    %query_pos_39 = arith.constant -2147483648 : i64 loc(#loc242)
    %query_pos_40 = arith.cmpi sle, %query_pos_37, %query_pos_38 : i64 loc(#loc242)
    %query_pos_41 = arith.cmpi sge, %query_pos_37, %query_pos_39 : i64 loc(#loc242)
    %query_pos_42 = arith.andi %query_pos_40, %query_pos_41 : i1 loc(#loc242)
    %query_pos_43 = arith.muli %q_block_local_idx_20, %query_pos_34 : i32 loc(#loc242)
    %query_pos_44 = arith.constant 2 : i32 loc(#loc243)
    %query_pos_45 = arith.constant 2 : i32 loc(#loc243)
    %query_pos_46 = arith.constant dense<2> : tensor<16xi32> loc(#loc243)
    %query_pos_47 = arith.divsi %offs_m, %query_pos_46 : tensor<16xi32> loc(#loc243)
    %query_pos_48 = tt.splat %query_pos_43 : i32 -> tensor<16xi32> loc(#loc244)
    %query_pos_49 = arith.extsi %query_pos_48 : tensor<16xi32> to tensor<16xi64> loc(#loc244)
    %query_pos_50 = arith.extsi %query_pos_47 : tensor<16xi32> to tensor<16xi64> loc(#loc244)
    %query_pos_51 = arith.addi %query_pos_49, %query_pos_50 : tensor<16xi64> loc(#loc244)
    %query_pos_52 = arith.constant 2147483647 : i64 loc(#loc244)
    %query_pos_53 = arith.constant -2147483648 : i64 loc(#loc244)
    %query_pos_54 = arith.constant dense<2147483647> : tensor<16xi64> loc(#loc244)
    %query_pos_55 = arith.cmpi sle, %query_pos_51, %query_pos_54 : tensor<16xi64> loc(#loc244)
    %query_pos_56 = arith.constant dense<-2147483648> : tensor<16xi64> loc(#loc244)
    %query_pos_57 = arith.cmpi sge, %query_pos_51, %query_pos_56 : tensor<16xi64> loc(#loc244)
    %query_pos_58 = arith.andi %query_pos_55, %query_pos_57 : tensor<16xi1> loc(#loc244)
    %query_pos_59 = arith.addi %query_pos_48, %query_pos_47 : tensor<16xi32> loc(#loc244)
    %query_offset_0 = tt.splat %cur_batch_in_all_start_index_21 : i32 -> tensor<16xi32> loc(#loc245)
    %query_offset_0_60 = arith.extsi %query_offset_0 : tensor<16xi32> to tensor<16xi64> loc(#loc245)
    %query_offset_0_61 = arith.extsi %query_pos_59 : tensor<16xi32> to tensor<16xi64> loc(#loc245)
    %query_offset_0_62 = arith.addi %query_offset_0_60, %query_offset_0_61 : tensor<16xi64> loc(#loc245)
    %query_offset_0_63 = arith.constant 2147483647 : i64 loc(#loc245)
    %query_offset_0_64 = arith.constant -2147483648 : i64 loc(#loc245)
    %query_offset_0_65 = arith.constant dense<2147483647> : tensor<16xi64> loc(#loc245)
    %query_offset_0_66 = arith.cmpi sle, %query_offset_0_62, %query_offset_0_65 : tensor<16xi64> loc(#loc245)
    %query_offset_0_67 = arith.constant dense<-2147483648> : tensor<16xi64> loc(#loc245)
    %query_offset_0_68 = arith.cmpi sge, %query_offset_0_62, %query_offset_0_67 : tensor<16xi64> loc(#loc245)
    %query_offset_0_69 = arith.andi %query_offset_0_66, %query_offset_0_68 : tensor<16xi1> loc(#loc245)
    %query_offset_0_70 = arith.addi %query_offset_0, %query_pos_59 : tensor<16xi32> loc(#loc245)
    %query_offset_1 = arith.constant 2 : i32 loc(#loc246)
    %query_offset_1_71 = arith.constant 2 : i32 loc(#loc246)
    %query_offset_1_72 = arith.extsi %kv_head_idx : i32 to i64 loc(#loc246)
    %query_offset_1_73 = arith.extsi %query_offset_1_71 : i32 to i64 loc(#loc246)
    %query_offset_1_74 = arith.muli %query_offset_1_72, %query_offset_1_73 : i64 loc(#loc246)
    %query_offset_1_75 = arith.constant 2147483647 : i64 loc(#loc246)
    %query_offset_1_76 = arith.constant -2147483648 : i64 loc(#loc246)
    %query_offset_1_77 = arith.cmpi sle, %query_offset_1_74, %query_offset_1_75 : i64 loc(#loc246)
    %query_offset_1_78 = arith.cmpi sge, %query_offset_1_74, %query_offset_1_76 : i64 loc(#loc246)
    %query_offset_1_79 = arith.andi %query_offset_1_77, %query_offset_1_78 : i1 loc(#loc246)
    %query_offset_1_80 = arith.muli %kv_head_idx, %query_offset_1_71 : i32 loc(#loc246)
    %query_offset_1_81 = arith.constant 2 : i32 loc(#loc247)
    %query_offset_1_82 = arith.constant 2 : i32 loc(#loc247)
    %query_offset_1_83 = arith.constant dense<2> : tensor<16xi32> loc(#loc247)
    %query_offset_1_84 = arith.remsi %offs_m, %query_offset_1_83 : tensor<16xi32> loc(#loc247)
    %query_offset_1_85 = tt.splat %query_offset_1_80 : i32 -> tensor<16xi32> loc(#loc248)
    %query_offset_1_86 = arith.extsi %query_offset_1_85 : tensor<16xi32> to tensor<16xi64> loc(#loc248)
    %query_offset_1_87 = arith.extsi %query_offset_1_84 : tensor<16xi32> to tensor<16xi64> loc(#loc248)
    %query_offset_1_88 = arith.addi %query_offset_1_86, %query_offset_1_87 : tensor<16xi64> loc(#loc248)
    %query_offset_1_89 = arith.constant 2147483647 : i64 loc(#loc248)
    %query_offset_1_90 = arith.constant -2147483648 : i64 loc(#loc248)
    %query_offset_1_91 = arith.constant dense<2147483647> : tensor<16xi64> loc(#loc248)
    %query_offset_1_92 = arith.cmpi sle, %query_offset_1_88, %query_offset_1_91 : tensor<16xi64> loc(#loc248)
    %query_offset_1_93 = arith.constant dense<-2147483648> : tensor<16xi64> loc(#loc248)
    %query_offset_1_94 = arith.cmpi sge, %query_offset_1_88, %query_offset_1_93 : tensor<16xi64> loc(#loc248)
    %query_offset_1_95 = arith.andi %query_offset_1_92, %query_offset_1_94 : tensor<16xi1> loc(#loc248)
    %query_offset_1_96 = arith.addi %query_offset_1_85, %query_offset_1_84 : tensor<16xi32> loc(#loc248)
    %query_offset = tt.expand_dims %query_offset_0_70 {axis = 1 : i32} : tensor<16xi32> -> tensor<16x1xi32> loc(#loc249)
    %query_offset_97 = arith.extsi %query_offset : tensor<16x1xi32> to tensor<16x1xi64> loc(#loc250)
    %query_offset_98 = tt.splat %query_stride_0 : i64 -> tensor<16x1xi64> loc(#loc250)
    %query_offset_99 = arith.muli %query_offset_97, %query_offset_98 : tensor<16x1xi64> loc(#loc250)
    %query_offset_100 = tt.expand_dims %query_offset_1_96 {axis = 1 : i32} : tensor<16xi32> -> tensor<16x1xi32> loc(#loc251)
    %query_offset_101 = arith.extsi %query_offset_100 : tensor<16x1xi32> to tensor<16x1xi64> loc(#loc252)
    %query_offset_102 = tt.splat %query_stride_1 : i64 -> tensor<16x1xi64> loc(#loc252)
    %query_offset_103 = arith.muli %query_offset_101, %query_offset_102 : tensor<16x1xi64> loc(#loc252)
    %query_offset_104 = arith.addi %query_offset_99, %query_offset_103 : tensor<16x1xi64> loc(#loc253)
    %query_offset_105 = tt.expand_dims %offs_d {axis = 0 : i32} : tensor<128xi32> -> tensor<1x128xi32> loc(#loc254)
    %query_offset_106 = arith.extsi %query_offset_105 : tensor<1x128xi32> to tensor<1x128xi64> loc(#loc255)
    %query_offset_107 = tt.broadcast %query_offset_104 : tensor<16x1xi64> -> tensor<16x128xi64> loc(#loc255)
    %query_offset_108 = tt.broadcast %query_offset_106 : tensor<1x128xi64> -> tensor<16x128xi64> loc(#loc255)
    %query_offset_109 = arith.addi %query_offset_107, %query_offset_108 : tensor<16x128xi64> loc(#loc255)
    %dim_mask = arith.constant 128 : i32 loc(#loc256)
    %dim_mask_110 = arith.constant dense<128> : tensor<128xi32> loc(#loc256)
    %dim_mask_111 = arith.cmpi slt, %offs_d, %dim_mask_110 : tensor<128xi32> loc(#loc256)
    %dim_mask_112 = arith.constant 1 : i32 loc(#loc257)
    %dim_mask_113 = arith.constant 0 : i32 loc(#loc257)
    %dim_mask_114 = arith.constant 1 : i32 loc(#loc257)
    %dim_mask_115 = arith.constant 0 : i32 loc(#loc257)
    %dim_mask_116 = arith.constant dense<1> : tensor<128xi32> loc(#loc257)
    %dim_mask_117 = arith.constant dense<0> : tensor<128xi32> loc(#loc257)
    %dim_mask_118 = arith.select %dim_mask_111, %dim_mask_116, %dim_mask_117 : tensor<128xi1>, tensor<128xi32> loc(#loc257)
    %dim_mask_119 = arith.constant 0 : i32 loc(#loc258)
    %dim_mask_120 = arith.constant dense<0> : tensor<128xi32> loc(#loc258)
    %dim_mask_121 = arith.cmpi ne, %dim_mask_118, %dim_mask_120 : tensor<128xi32> loc(#loc258)
    %query_mask_0 = tt.splat %cur_batch_query_len_32 : i32 -> tensor<16xi32> loc(#loc259)
    %query_mask_0_122 = arith.cmpi slt, %query_pos_59, %query_mask_0 : tensor<16xi32> loc(#loc259)
    %query_mask_0_123 = arith.constant 1 : i32 loc(#loc260)
    %query_mask_0_124 = arith.constant 0 : i32 loc(#loc260)
    %query_mask_0_125 = arith.constant 1 : i32 loc(#loc260)
    %query_mask_0_126 = arith.constant 0 : i32 loc(#loc260)
    %query_mask_0_127 = arith.constant dense<1> : tensor<16xi32> loc(#loc260)
    %query_mask_0_128 = arith.constant dense<0> : tensor<16xi32> loc(#loc260)
    %query_mask_0_129 = arith.select %query_mask_0_122, %query_mask_0_127, %query_mask_0_128 : tensor<16xi1>, tensor<16xi32> loc(#loc260)
    %query_mask_0_130 = arith.constant 0 : i32 loc(#loc261)
    %query_mask_0_131 = arith.constant dense<0> : tensor<16xi32> loc(#loc261)
    %query_mask_0_132 = arith.cmpi ne, %query_mask_0_129, %query_mask_0_131 : tensor<16xi32> loc(#loc261)
    %query_mask_1 = arith.constant 16 : i32 loc(#loc262)
    %query_mask_1_133 = arith.constant dense<16> : tensor<16xi32> loc(#loc262)
    %query_mask_1_134 = arith.cmpi slt, %query_offset_1_96, %query_mask_1_133 : tensor<16xi32> loc(#loc262)
    %query_mask_1_135 = arith.constant 1 : i32 loc(#loc263)
    %query_mask_1_136 = arith.constant 0 : i32 loc(#loc263)
    %query_mask_1_137 = arith.constant 1 : i32 loc(#loc263)
    %query_mask_1_138 = arith.constant 0 : i32 loc(#loc263)
    %query_mask_1_139 = arith.constant dense<1> : tensor<16xi32> loc(#loc263)
    %query_mask_1_140 = arith.constant dense<0> : tensor<16xi32> loc(#loc263)
    %query_mask_1_141 = arith.select %query_mask_1_134, %query_mask_1_139, %query_mask_1_140 : tensor<16xi1>, tensor<16xi32> loc(#loc263)
    %query_mask_1_142 = arith.constant 0 : i32 loc(#loc264)
    %query_mask_1_143 = arith.constant dense<0> : tensor<16xi32> loc(#loc264)
    %query_mask_1_144 = arith.cmpi ne, %query_mask_1_141, %query_mask_1_143 : tensor<16xi32> loc(#loc264)
    %Q = tt.expand_dims %dim_mask_121 {axis = 0 : i32} : tensor<128xi1> -> tensor<1x128xi1> loc(#loc265)
    %Q_145 = tt.expand_dims %query_mask_0_132 {axis = 1 : i32} : tensor<16xi1> -> tensor<16x1xi1> loc(#loc266)
    %Q_146 = tt.broadcast %Q : tensor<1x128xi1> -> tensor<16x128xi1> loc(#loc267)
    %Q_147 = tt.broadcast %Q_145 : tensor<16x1xi1> -> tensor<16x128xi1> loc(#loc267)
    %Q_148 = arith.andi %Q_146, %Q_147 : tensor<16x128xi1> loc(#loc267)
    %Q_149 = tt.expand_dims %query_mask_1_144 {axis = 1 : i32} : tensor<16xi1> -> tensor<16x1xi1> loc(#loc268)
    %Q_150 = tt.broadcast %Q_149 : tensor<16x1xi1> -> tensor<16x128xi1> loc(#loc269)
    %Q_151 = arith.andi %Q_148, %Q_150 : tensor<16x128xi1> loc(#loc269)
    %Q_152 = tt.splat %query_ptr : !tt.ptr<bf16> -> tensor<16x128x!tt.ptr<bf16>> loc(#loc270)
    %Q_153 = tt.addptr %Q_152, %query_offset_109 : tensor<16x128x!tt.ptr<bf16>>, tensor<16x128xi64> loc(#loc270)
    %Q_154 = arith.constant 0.000000e+00 : f32 loc(#loc271)
    %Q_155 = arith.constant dense<0.000000e+00> : tensor<16x128xf32> loc(#loc271)
    %Q_156 = arith.truncf %Q_155 : tensor<16x128xf32> to tensor<16x128xbf16> loc(#loc271)
    %Q_157 = tt.load %Q_153, %Q_151, %Q_156 : tensor<16x128x!tt.ptr<bf16>> loc(#loc271)
    %block_table_offset = arith.extsi %seq_idx : i32 to i64 loc(#loc272)
    %block_table_offset_158 = arith.muli %block_table_offset, %block_table_stride : i64 loc(#loc272)
    %M = arith.constant 0xFF800000 : f32 loc(#loc273)
    %M_159 = arith.constant dense<0xFF800000> : tensor<16xf32> loc(#loc273)
    %L = arith.constant 1.000000e+00 : f32 loc(#loc274)
    %L_160 = arith.constant dense<1.000000e+00> : tensor<16xf32> loc(#loc274)
    %acc = tt.call @"triton.language.standard.zeros____(0, 0)cconstexpr_16__(0, 1)cconstexpr_128__(1,)cconstexpr_fp32_"() : () -> tensor<16x128xf32> loc(#loc275)
    %seq_len = tt.addptr %seq_lens_ptr, %seq_idx : !tt.ptr<i32>, i32 loc(#loc276)
    %seq_len_161 = tt.load %seq_len : !tt.ptr<i32> loc(#loc277)
    %context_len = arith.extsi %seq_len_161 : i32 to i64 loc(#loc278)
    %context_len_162 = arith.extsi %cur_batch_query_len_32 : i32 to i64 loc(#loc278)
    %context_len_163 = arith.subi %context_len, %context_len_162 : i64 loc(#loc278)
    %context_len_164 = arith.constant 2147483647 : i64 loc(#loc278)
    %context_len_165 = arith.constant -2147483648 : i64 loc(#loc278)
    %context_len_166 = arith.cmpi sle, %context_len_163, %context_len_164 : i64 loc(#loc278)
    %context_len_167 = arith.cmpi sge, %context_len_163, %context_len_165 : i64 loc(#loc278)
    %context_len_168 = arith.andi %context_len_166, %context_len_167 : i1 loc(#loc278)
    %context_len_169 = arith.subi %seq_len_161, %cur_batch_query_len_32 : i32 loc(#loc278)
    %max_seq_prefix_len = arith.constant 8 : i32 loc(#loc279)
    %max_seq_prefix_len_170 = arith.constant 8 : i32 loc(#loc279)
    %max_seq_prefix_len_171 = arith.extsi %q_block_local_idx_20 : i32 to i64 loc(#loc279)
    %max_seq_prefix_len_172 = arith.extsi %max_seq_prefix_len_170 : i32 to i64 loc(#loc279)
    %max_seq_prefix_len_173 = arith.muli %max_seq_prefix_len_171, %max_seq_prefix_len_172 : i64 loc(#loc279)
    %max_seq_prefix_len_174 = arith.constant 2147483647 : i64 loc(#loc279)
    %max_seq_prefix_len_175 = arith.constant -2147483648 : i64 loc(#loc279)
    %max_seq_prefix_len_176 = arith.cmpi sle, %max_seq_prefix_len_173, %max_seq_prefix_len_174 : i64 loc(#loc279)
    %max_seq_prefix_len_177 = arith.cmpi sge, %max_seq_prefix_len_173, %max_seq_prefix_len_175 : i64 loc(#loc279)
    %max_seq_prefix_len_178 = arith.andi %max_seq_prefix_len_176, %max_seq_prefix_len_177 : i1 loc(#loc279)
    %max_seq_prefix_len_179 = arith.muli %q_block_local_idx_20, %max_seq_prefix_len_170 : i32 loc(#loc279)
    %max_seq_prefix_len_180 = arith.extsi %context_len_169 : i32 to i64 loc(#loc280)
    %max_seq_prefix_len_181 = arith.extsi %max_seq_prefix_len_179 : i32 to i64 loc(#loc280)
    %max_seq_prefix_len_182 = arith.addi %max_seq_prefix_len_180, %max_seq_prefix_len_181 : i64 loc(#loc280)
    %max_seq_prefix_len_183 = arith.constant 2147483647 : i64 loc(#loc280)
    %max_seq_prefix_len_184 = arith.constant -2147483648 : i64 loc(#loc280)
    %max_seq_prefix_len_185 = arith.cmpi sle, %max_seq_prefix_len_182, %max_seq_prefix_len_183 : i64 loc(#loc280)
    %max_seq_prefix_len_186 = arith.cmpi sge, %max_seq_prefix_len_182, %max_seq_prefix_len_184 : i64 loc(#loc280)
    %max_seq_prefix_len_187 = arith.andi %max_seq_prefix_len_185, %max_seq_prefix_len_186 : i1 loc(#loc280)
    %max_seq_prefix_len_188 = arith.addi %context_len_169, %max_seq_prefix_len_179 : i32 loc(#loc280)
    %max_seq_prefix_len_189 = arith.constant 7 : i32 loc(#loc281)
    %max_seq_prefix_len_190 = arith.constant 7 : i32 loc(#loc281)
    %max_seq_prefix_len_191 = arith.extsi %max_seq_prefix_len_188 : i32 to i64 loc(#loc281)
    %max_seq_prefix_len_192 = arith.extsi %max_seq_prefix_len_190 : i32 to i64 loc(#loc281)
    %max_seq_prefix_len_193 = arith.addi %max_seq_prefix_len_191, %max_seq_prefix_len_192 : i64 loc(#loc281)
    %max_seq_prefix_len_194 = arith.constant 2147483647 : i64 loc(#loc281)
    %max_seq_prefix_len_195 = arith.constant -2147483648 : i64 loc(#loc281)
    %max_seq_prefix_len_196 = arith.cmpi sle, %max_seq_prefix_len_193, %max_seq_prefix_len_194 : i64 loc(#loc281)
    %max_seq_prefix_len_197 = arith.cmpi sge, %max_seq_prefix_len_193, %max_seq_prefix_len_195 : i64 loc(#loc281)
    %max_seq_prefix_len_198 = arith.andi %max_seq_prefix_len_196, %max_seq_prefix_len_197 : i1 loc(#loc281)
    %max_seq_prefix_len_199 = arith.addi %max_seq_prefix_len_188, %max_seq_prefix_len_190 : i32 loc(#loc281)
    %max_seq_prefix_len_200 = arith.constant 1 : i32 loc(#loc282)
    %max_seq_prefix_len_201 = arith.constant 1 : i32 loc(#loc282)
    %max_seq_prefix_len_202 = arith.extsi %max_seq_prefix_len_199 : i32 to i64 loc(#loc282)
    %max_seq_prefix_len_203 = arith.extsi %max_seq_prefix_len_201 : i32 to i64 loc(#loc282)
    %max_seq_prefix_len_204 = arith.addi %max_seq_prefix_len_202, %max_seq_prefix_len_203 : i64 loc(#loc282)
    %max_seq_prefix_len_205 = arith.constant 2147483647 : i64 loc(#loc282)
    %max_seq_prefix_len_206 = arith.constant -2147483648 : i64 loc(#loc282)
    %max_seq_prefix_len_207 = arith.cmpi sle, %max_seq_prefix_len_204, %max_seq_prefix_len_205 : i64 loc(#loc282)
    %max_seq_prefix_len_208 = arith.cmpi sge, %max_seq_prefix_len_204, %max_seq_prefix_len_206 : i64 loc(#loc282)
    %max_seq_prefix_len_209 = arith.andi %max_seq_prefix_len_207, %max_seq_prefix_len_208 : i1 loc(#loc282)
    %max_seq_prefix_len_210 = arith.addi %max_seq_prefix_len_199, %max_seq_prefix_len_201 : i32 loc(#loc282)
    %max_seq_prefix_len_211 = arith.minsi %max_seq_prefix_len_210, %seq_len_161 : i32 loc(#loc283)
    %num_tiles = tt.call @"vllm.v1.attention.ops.triton_unified_attention.cdiv_fn__i32__(1,)cconstexpr_32_"(%max_seq_prefix_len_211) : (i32) -> i32 loc(#loc284)
    %tile_start = arith.constant 0 : i32 loc(#loc285)
    %c1_i32 = arith.constant 1 : i32 loc(#loc66)
    %8 = arith.bitcast %tile_start : i32 to i32 loc(#loc66)
    %9 = arith.bitcast %num_tiles : i32 to i32 loc(#loc66)
    %10 = arith.bitcast %c1_i32 : i32 to i32 loc(#loc66)
    %11 = ub.poison : i32 loc(#loc66)
    %acc_212:3 = scf.for %j = %8 to %9 step %10 iter_args(%M_229 = %M_159, %L_230 = %L_160, %acc_231 = %acc) -> (tensor<16xf32>, tensor<16xf32>, tensor<16x128xf32>)  : i32 {
      %seq_offset = arith.constant 32 : i32 loc(#loc287)
      %seq_offset_232 = arith.constant 32 : i32 loc(#loc287)
      %seq_offset_233 = arith.extsi %j : i32 to i64 loc(#loc287)
      %seq_offset_234 = arith.extsi %seq_offset_232 : i32 to i64 loc(#loc287)
      %seq_offset_235 = arith.muli %seq_offset_233, %seq_offset_234 : i64 loc(#loc287)
      %seq_offset_236 = arith.constant 2147483647 : i64 loc(#loc287)
      %seq_offset_237 = arith.constant -2147483648 : i64 loc(#loc287)
      %seq_offset_238 = arith.cmpi sle, %seq_offset_235, %seq_offset_236 : i64 loc(#loc287)
      %seq_offset_239 = arith.cmpi sge, %seq_offset_235, %seq_offset_237 : i64 loc(#loc287)
      %seq_offset_240 = arith.andi %seq_offset_238, %seq_offset_239 : i1 loc(#loc287)
      %seq_offset_241 = arith.muli %j, %seq_offset_232 : i32 loc(#loc287)
      %seq_offset_242 = tt.splat %seq_offset_241 : i32 -> tensor<32xi32> loc(#loc288)
      %seq_offset_243 = arith.extsi %seq_offset_242 : tensor<32xi32> to tensor<32xi64> loc(#loc288)
      %seq_offset_244 = arith.extsi %offs_t : tensor<32xi32> to tensor<32xi64> loc(#loc288)
      %seq_offset_245 = arith.addi %seq_offset_243, %seq_offset_244 : tensor<32xi64> loc(#loc288)
      %seq_offset_246 = arith.constant 2147483647 : i64 loc(#loc288)
      %seq_offset_247 = arith.constant -2147483648 : i64 loc(#loc288)
      %seq_offset_248 = arith.constant dense<2147483647> : tensor<32xi64> loc(#loc288)
      %seq_offset_249 = arith.cmpi sle, %seq_offset_245, %seq_offset_248 : tensor<32xi64> loc(#loc288)
      %seq_offset_250 = arith.constant dense<-2147483648> : tensor<32xi64> loc(#loc288)
      %seq_offset_251 = arith.cmpi sge, %seq_offset_245, %seq_offset_250 : tensor<32xi64> loc(#loc288)
      %seq_offset_252 = arith.andi %seq_offset_249, %seq_offset_251 : tensor<32xi1> loc(#loc288)
      %seq_offset_253 = arith.addi %seq_offset_242, %offs_t : tensor<32xi32> loc(#loc288)
      %tile_mask = tt.splat %max_seq_prefix_len_211 : i32 -> tensor<32xi32> loc(#loc289)
      %tile_mask_254 = arith.cmpi slt, %seq_offset_253, %tile_mask : tensor<32xi32> loc(#loc289)
      %physical_block_idx = tt.addptr %block_tables_ptr, %block_table_offset_158 : !tt.ptr<i32>, i64 loc(#loc290)
      %physical_block_idx_255 = arith.constant 16 : i32 loc(#loc291)
      %physical_block_idx_256 = arith.constant 16 : i32 loc(#loc291)
      %physical_block_idx_257 = arith.constant dense<16> : tensor<32xi32> loc(#loc291)
      %physical_block_idx_258 = arith.divsi %seq_offset_253, %physical_block_idx_257 : tensor<32xi32> loc(#loc291)
      %physical_block_idx_259 = tt.splat %physical_block_idx : !tt.ptr<i32> -> tensor<32x!tt.ptr<i32>> loc(#loc292)
      %physical_block_idx_260 = tt.addptr %physical_block_idx_259, %physical_block_idx_258 : tensor<32x!tt.ptr<i32>>, tensor<32xi32> loc(#loc292)
      %physical_block_idx_261 = tt.load %physical_block_idx_260 : tensor<32x!tt.ptr<i32>> loc(#loc293)
      %physical_block_idx_262 = arith.extsi %physical_block_idx_261 : tensor<32xi32> to tensor<32xi64> loc(#loc294)
      %v_offset = tt.expand_dims %physical_block_idx_262 {axis = 1 : i32} : tensor<32xi64> -> tensor<32x1xi64> loc(#loc295)
      %v_offset_263 = tt.splat %stride_v_cache_0 : i64 -> tensor<32x1xi64> loc(#loc296)
      %v_offset_264 = arith.muli %v_offset, %v_offset_263 : tensor<32x1xi64> loc(#loc296)
      %v_offset_265 = arith.extsi %kv_head_idx : i32 to i64 loc(#loc297)
      %v_offset_266 = arith.muli %v_offset_265, %stride_v_cache_2 : i64 loc(#loc297)
      %v_offset_267 = tt.splat %v_offset_266 : i64 -> tensor<32x1xi64> loc(#loc298)
      %v_offset_268 = arith.addi %v_offset_264, %v_offset_267 : tensor<32x1xi64> loc(#loc298)
      %v_offset_269 = tt.expand_dims %offs_d {axis = 0 : i32} : tensor<128xi32> -> tensor<1x128xi32> loc(#loc299)
      %v_offset_270 = arith.constant 1 : i32 loc(#loc300)
      %v_offset_271 = arith.constant 1 : i32 loc(#loc300)
      %v_offset_272 = arith.constant dense<1> : tensor<1x128xi32> loc(#loc300)
      %v_offset_273 = arith.extsi %v_offset_269 : tensor<1x128xi32> to tensor<1x128xi64> loc(#loc300)
      %v_offset_274 = arith.extsi %v_offset_272 : tensor<1x128xi32> to tensor<1x128xi64> loc(#loc300)
      %v_offset_275 = arith.muli %v_offset_273, %v_offset_274 : tensor<1x128xi64> loc(#loc300)
      %v_offset_276 = arith.constant 2147483647 : i64 loc(#loc300)
      %v_offset_277 = arith.constant -2147483648 : i64 loc(#loc300)
      %v_offset_278 = arith.constant dense<2147483647> : tensor<1x128xi64> loc(#loc300)
      %v_offset_279 = arith.cmpi sle, %v_offset_275, %v_offset_278 : tensor<1x128xi64> loc(#loc300)
      %v_offset_280 = arith.constant dense<-2147483648> : tensor<1x128xi64> loc(#loc300)
      %v_offset_281 = arith.cmpi sge, %v_offset_275, %v_offset_280 : tensor<1x128xi64> loc(#loc300)
      %v_offset_282 = arith.andi %v_offset_279, %v_offset_281 : tensor<1x128xi1> loc(#loc300)
      %v_offset_283 = arith.muli %v_offset_269, %v_offset_272 : tensor<1x128xi32> loc(#loc300)
      %v_offset_284 = arith.extsi %v_offset_283 : tensor<1x128xi32> to tensor<1x128xi64> loc(#loc301)
      %v_offset_285 = tt.broadcast %v_offset_268 : tensor<32x1xi64> -> tensor<32x128xi64> loc(#loc301)
      %v_offset_286 = tt.broadcast %v_offset_284 : tensor<1x128xi64> -> tensor<32x128xi64> loc(#loc301)
      %v_offset_287 = arith.addi %v_offset_285, %v_offset_286 : tensor<32x128xi64> loc(#loc301)
      %v_offset_288 = arith.constant 16 : i32 loc(#loc302)
      %v_offset_289 = arith.constant 16 : i32 loc(#loc302)
      %v_offset_290 = arith.constant dense<16> : tensor<32xi32> loc(#loc302)
      %v_offset_291 = arith.remsi %seq_offset_253, %v_offset_290 : tensor<32xi32> loc(#loc302)
      %v_offset_292 = tt.expand_dims %v_offset_291 {axis = 1 : i32} : tensor<32xi32> -> tensor<32x1xi32> loc(#loc303)
      %v_offset_293 = arith.extsi %v_offset_292 : tensor<32x1xi32> to tensor<32x1xi64> loc(#loc304)
      %v_offset_294 = tt.splat %stride_v_cache_1 : i64 -> tensor<32x1xi64> loc(#loc304)
      %v_offset_295 = arith.muli %v_offset_293, %v_offset_294 : tensor<32x1xi64> loc(#loc304)
      %v_offset_296 = tt.broadcast %v_offset_295 : tensor<32x1xi64> -> tensor<32x128xi64> loc(#loc305)
      %v_offset_297 = arith.addi %v_offset_287, %v_offset_296 : tensor<32x128xi64> loc(#loc305)
      %k_offset = tt.expand_dims %physical_block_idx_262 {axis = 0 : i32} : tensor<32xi64> -> tensor<1x32xi64> loc(#loc306)
      %k_offset_298 = tt.splat %stride_k_cache_0 : i64 -> tensor<1x32xi64> loc(#loc307)
      %k_offset_299 = arith.muli %k_offset, %k_offset_298 : tensor<1x32xi64> loc(#loc307)
      %k_offset_300 = arith.extsi %kv_head_idx : i32 to i64 loc(#loc308)
      %k_offset_301 = arith.muli %k_offset_300, %stride_k_cache_2 : i64 loc(#loc308)
      %k_offset_302 = tt.splat %k_offset_301 : i64 -> tensor<1x32xi64> loc(#loc309)
      %k_offset_303 = arith.addi %k_offset_299, %k_offset_302 : tensor<1x32xi64> loc(#loc309)
      %k_offset_304 = tt.expand_dims %offs_d {axis = 1 : i32} : tensor<128xi32> -> tensor<128x1xi32> loc(#loc310)
      %k_offset_305 = arith.constant 1 : i32 loc(#loc311)
      %k_offset_306 = arith.constant 1 : i32 loc(#loc311)
      %k_offset_307 = arith.constant dense<1> : tensor<128x1xi32> loc(#loc311)
      %k_offset_308 = arith.extsi %k_offset_304 : tensor<128x1xi32> to tensor<128x1xi64> loc(#loc311)
      %k_offset_309 = arith.extsi %k_offset_307 : tensor<128x1xi32> to tensor<128x1xi64> loc(#loc311)
      %k_offset_310 = arith.muli %k_offset_308, %k_offset_309 : tensor<128x1xi64> loc(#loc311)
      %k_offset_311 = arith.constant 2147483647 : i64 loc(#loc311)
      %k_offset_312 = arith.constant -2147483648 : i64 loc(#loc311)
      %k_offset_313 = arith.constant dense<2147483647> : tensor<128x1xi64> loc(#loc311)
      %k_offset_314 = arith.cmpi sle, %k_offset_310, %k_offset_313 : tensor<128x1xi64> loc(#loc311)
      %k_offset_315 = arith.constant dense<-2147483648> : tensor<128x1xi64> loc(#loc311)
      %k_offset_316 = arith.cmpi sge, %k_offset_310, %k_offset_315 : tensor<128x1xi64> loc(#loc311)
      %k_offset_317 = arith.andi %k_offset_314, %k_offset_316 : tensor<128x1xi1> loc(#loc311)
      %k_offset_318 = arith.muli %k_offset_304, %k_offset_307 : tensor<128x1xi32> loc(#loc311)
      %k_offset_319 = arith.extsi %k_offset_318 : tensor<128x1xi32> to tensor<128x1xi64> loc(#loc312)
      %k_offset_320 = tt.broadcast %k_offset_303 : tensor<1x32xi64> -> tensor<128x32xi64> loc(#loc312)
      %k_offset_321 = tt.broadcast %k_offset_319 : tensor<128x1xi64> -> tensor<128x32xi64> loc(#loc312)
      %k_offset_322 = arith.addi %k_offset_320, %k_offset_321 : tensor<128x32xi64> loc(#loc312)
      %k_offset_323 = arith.constant 16 : i32 loc(#loc313)
      %k_offset_324 = arith.constant 16 : i32 loc(#loc313)
      %k_offset_325 = arith.constant dense<16> : tensor<32xi32> loc(#loc313)
      %k_offset_326 = arith.remsi %seq_offset_253, %k_offset_325 : tensor<32xi32> loc(#loc313)
      %k_offset_327 = tt.expand_dims %k_offset_326 {axis = 0 : i32} : tensor<32xi32> -> tensor<1x32xi32> loc(#loc314)
      %k_offset_328 = arith.extsi %k_offset_327 : tensor<1x32xi32> to tensor<1x32xi64> loc(#loc315)
      %k_offset_329 = tt.splat %stride_k_cache_1 : i64 -> tensor<1x32xi64> loc(#loc315)
      %k_offset_330 = arith.muli %k_offset_328, %k_offset_329 : tensor<1x32xi64> loc(#loc315)
      %k_offset_331 = tt.broadcast %k_offset_330 : tensor<1x32xi64> -> tensor<128x32xi64> loc(#loc316)
      %k_offset_332 = arith.addi %k_offset_322, %k_offset_331 : tensor<128x32xi64> loc(#loc316)
      %K_load = tt.expand_dims %dim_mask_121 {axis = 1 : i32} : tensor<128xi1> -> tensor<128x1xi1> loc(#loc317)
      %K_load_333 = tt.expand_dims %tile_mask_254 {axis = 0 : i32} : tensor<32xi1> -> tensor<1x32xi1> loc(#loc318)
      %K_load_334 = tt.broadcast %K_load : tensor<128x1xi1> -> tensor<128x32xi1> loc(#loc319)
      %K_load_335 = tt.broadcast %K_load_333 : tensor<1x32xi1> -> tensor<128x32xi1> loc(#loc319)
      %K_load_336 = arith.andi %K_load_334, %K_load_335 : tensor<128x32xi1> loc(#loc319)
      %K_load_337 = tt.splat %key_cache_ptr : !tt.ptr<bf16> -> tensor<128x32x!tt.ptr<bf16>> loc(#loc320)
      %K_load_338 = tt.addptr %K_load_337, %k_offset_332 : tensor<128x32x!tt.ptr<bf16>>, tensor<128x32xi64> loc(#loc320)
      %K_load_339 = arith.constant 0.000000e+00 : f32 loc(#loc321)
      %K_load_340 = arith.constant dense<0.000000e+00> : tensor<128x32xf32> loc(#loc321)
      %K_load_341 = arith.truncf %K_load_340 : tensor<128x32xf32> to tensor<128x32xbf16> loc(#loc321)
      %K_load_342 = tt.load %K_load_338, %K_load_336, %K_load_341 : tensor<128x32x!tt.ptr<bf16>> loc(#loc321)
      %V_load = tt.expand_dims %dim_mask_121 {axis = 0 : i32} : tensor<128xi1> -> tensor<1x128xi1> loc(#loc322)
      %V_load_343 = tt.expand_dims %tile_mask_254 {axis = 1 : i32} : tensor<32xi1> -> tensor<32x1xi1> loc(#loc323)
      %V_load_344 = tt.broadcast %V_load : tensor<1x128xi1> -> tensor<32x128xi1> loc(#loc324)
      %V_load_345 = tt.broadcast %V_load_343 : tensor<32x1xi1> -> tensor<32x128xi1> loc(#loc324)
      %V_load_346 = arith.andi %V_load_344, %V_load_345 : tensor<32x128xi1> loc(#loc324)
      %V_load_347 = tt.splat %value_cache_ptr : !tt.ptr<bf16> -> tensor<32x128x!tt.ptr<bf16>> loc(#loc325)
      %V_load_348 = tt.addptr %V_load_347, %v_offset_297 : tensor<32x128x!tt.ptr<bf16>>, tensor<32x128xi64> loc(#loc325)
      %V_load_349 = arith.constant 0.000000e+00 : f32 loc(#loc326)
      %V_load_350 = arith.constant dense<0.000000e+00> : tensor<32x128xf32> loc(#loc326)
      %V_load_351 = arith.truncf %V_load_350 : tensor<32x128xf32> to tensor<32x128xbf16> loc(#loc326)
      %V_load_352 = tt.load %V_load_348, %V_load_346, %V_load_351 : tensor<32x128x!tt.ptr<bf16>> loc(#loc326)
      %query_abs_pos = tt.expand_dims %query_pos_59 {axis = 1 : i32} : tensor<16xi32> -> tensor<16x1xi32> loc(#loc327)
      %query_abs_pos_353 = tt.splat %context_len_169 : i32 -> tensor<16x1xi32> loc(#loc328)
      %query_abs_pos_354 = arith.extsi %query_abs_pos_353 : tensor<16x1xi32> to tensor<16x1xi64> loc(#loc328)
      %query_abs_pos_355 = arith.extsi %query_abs_pos : tensor<16x1xi32> to tensor<16x1xi64> loc(#loc328)
      %query_abs_pos_356 = arith.addi %query_abs_pos_354, %query_abs_pos_355 : tensor<16x1xi64> loc(#loc328)
      %query_abs_pos_357 = arith.constant 2147483647 : i64 loc(#loc328)
      %query_abs_pos_358 = arith.constant -2147483648 : i64 loc(#loc328)
      %query_abs_pos_359 = arith.constant dense<2147483647> : tensor<16x1xi64> loc(#loc328)
      %query_abs_pos_360 = arith.cmpi sle, %query_abs_pos_356, %query_abs_pos_359 : tensor<16x1xi64> loc(#loc328)
      %query_abs_pos_361 = arith.constant dense<-2147483648> : tensor<16x1xi64> loc(#loc328)
      %query_abs_pos_362 = arith.cmpi sge, %query_abs_pos_356, %query_abs_pos_361 : tensor<16x1xi64> loc(#loc328)
      %query_abs_pos_363 = arith.andi %query_abs_pos_360, %query_abs_pos_362 : tensor<16x1xi1> loc(#loc328)
      %query_abs_pos_364 = arith.addi %query_abs_pos_353, %query_abs_pos : tensor<16x1xi32> loc(#loc328)
      %seq_mask = tt.expand_dims %seq_offset_253 {axis = 0 : i32} : tensor<32xi32> -> tensor<1x32xi32> loc(#loc329)
      %seq_mask_365 = tt.broadcast %seq_mask : tensor<1x32xi32> -> tensor<16x32xi32> loc(#loc330)
      %seq_mask_366 = tt.broadcast %query_abs_pos_364 : tensor<16x1xi32> -> tensor<16x32xi32> loc(#loc330)
      %seq_mask_367 = arith.cmpi sle, %seq_mask_365, %seq_mask_366 : tensor<16x32xi32> loc(#loc330)
      %S = tt.call @"triton.language.standard.zeros____(0, 0)cconstexpr_16__(0, 1)cconstexpr_32__(1,)cconstexpr_fp32_"() : () -> tensor<16x32xf32> loc(#loc331)
      %S_368 = arith.constant 0.000000e+00 : f32 loc(#loc332)
      %S_369 = arith.constant dense<0.000000e+00> : tensor<16x32xf32> loc(#loc332)
      %S_370 = tt.dot %Q_157, %K_load_342, %S_369, inputPrecision = tf32 : tensor<16x128xbf16> * tensor<128x32xbf16> -> tensor<16x32xf32> loc(#loc332)
      %S_371 = tt.splat %scale : f32 -> tensor<16x32xf32> loc(#loc333)
      %S_372 = arith.mulf %S_371, %S_370 : tensor<16x32xf32> loc(#loc333)
      %S_373 = arith.addf %S, %S_372 : tensor<16x32xf32> loc(#loc334)
      %S_374 = tt.expand_dims %query_mask_1_144 {axis = 1 : i32} : tensor<16xi1> -> tensor<16x1xi1> loc(#loc335)
      %S_375 = tt.expand_dims %query_mask_0_132 {axis = 1 : i32} : tensor<16xi1> -> tensor<16x1xi1> loc(#loc336)
      %S_376 = arith.andi %S_374, %S_375 : tensor<16x1xi1> loc(#loc337)
      %S_377 = tt.broadcast %S_376 : tensor<16x1xi1> -> tensor<16x32xi1> loc(#loc338)
      %S_378 = arith.andi %S_377, %seq_mask_367 : tensor<16x32xi1> loc(#loc338)
      %S_379 = arith.constant 0xFF800000 : f32 loc(#loc339)
      %S_380 = arith.constant 0xFF800000 : f32 loc(#loc339)
      %S_381 = arith.constant dense<0xFF800000> : tensor<16x32xf32> loc(#loc339)
      %S_382 = arith.select %S_378, %S_373, %S_381 : tensor<16x32xi1>, tensor<16x32xf32> loc(#loc339)
      %m_j = tt.call @"triton.language.standard.max__fp32S16_32S__(1,)cconstexpr_1__(2,)cconstexpr_False__(3,)cconstexpr_True__(4,)cconstexpr_False_"(%S_382) : (tensor<16x32xf32>) -> tensor<16xf32> loc(#loc340)
      %m_j_383 = arith.maxnumf %M_229, %m_j : tensor<16xf32> loc(#loc341)
      %m_j_384 = arith.constant 0xFF800000 : f32 loc(#loc342)
      %m_j_385 = arith.constant dense<0xFF800000> : tensor<16xf32> loc(#loc342)
      %m_j_386 = arith.cmpf ogt, %m_j_383, %m_j_385 : tensor<16xf32> loc(#loc342)
      %m_j_387 = arith.constant 0.000000e+00 : f32 loc(#loc343)
      %m_j_388 = arith.constant 0.000000e+00 : f32 loc(#loc343)
      %m_j_389 = arith.constant dense<0.000000e+00> : tensor<16xf32> loc(#loc343)
      %m_j_390 = arith.select %m_j_386, %m_j_383, %m_j_389 : tensor<16xi1>, tensor<16xf32> loc(#loc343)
      %P = tt.expand_dims %m_j_390 {axis = 1 : i32} : tensor<16xf32> -> tensor<16x1xf32> loc(#loc344)
      %P_391 = tt.broadcast %P : tensor<16x1xf32> -> tensor<16x32xf32> loc(#loc345)
      %P_392 = arith.subf %S_382, %P_391 : tensor<16x32xf32> loc(#loc345)
      %P_393 = math.exp %P_392 : tensor<16x32xf32> loc(#loc346)
      %l_j = tt.call @"triton.language.standard.sum__fp32S16_32S__(1,)cconstexpr_1__(2,)cconstexpr_False__(3,)cNone"(%P_393) : (tensor<16x32xf32>) -> tensor<16xf32> loc(#loc347)
      %alpha = arith.subf %M_229, %m_j_390 : tensor<16xf32> loc(#loc348)
      %alpha_394 = math.exp %alpha : tensor<16xf32> loc(#loc349)
      %acc_395 = tt.expand_dims %alpha_394 {axis = 1 : i32} : tensor<16xf32> -> tensor<16x1xf32> loc(#loc350)
      %acc_396 = tt.broadcast %acc_395 : tensor<16x1xf32> -> tensor<16x128xf32> loc(#loc351)
      %acc_397 = arith.mulf %acc_231, %acc_396 : tensor<16x128xf32> loc(#loc351)
      %L_398 = arith.mulf %L_230, %alpha_394 : tensor<16xf32> loc(#loc352)
      %L_399 = arith.addf %L_398, %l_j : tensor<16xf32> loc(#loc353)
      %acc_400 = arith.truncf %P_393 : tensor<16x32xf32> to tensor<16x32xbf16> loc(#loc354)
      %acc_401 = arith.constant 0.000000e+00 : f32 loc(#loc355)
      %acc_402 = arith.constant dense<0.000000e+00> : tensor<16x128xf32> loc(#loc355)
      %acc_403 = tt.dot %acc_400, %V_load_352, %acc_402, inputPrecision = tf32 : tensor<16x32xbf16> * tensor<32x128xbf16> -> tensor<16x128xf32> loc(#loc355)
      %acc_404 = arith.addf %acc_397, %acc_403 : tensor<16x128xf32> loc(#loc356)
      scf.yield %m_j_390, %L_399, %acc_404 : tensor<16xf32>, tensor<16xf32>, tensor<16x128xf32> loc(#loc137)
    } loc(#loc393)
    %acc_213 = tt.expand_dims %acc_212#1 {axis = 1 : i32} : tensor<16xf32> -> tensor<16x1xf32> loc(#loc357)
    %acc_214 = tt.broadcast %acc_213 : tensor<16x1xf32> -> tensor<16x128xf32> loc(#loc358)
    %acc_215 = arith.divf %acc_212#2, %acc_214 : tensor<16x128xf32> loc(#loc358)
    %output_offset = tt.expand_dims %query_offset_0_70 {axis = 1 : i32} : tensor<16xi32> -> tensor<16x1xi32> loc(#loc359)
    %output_offset_216 = arith.extsi %output_offset : tensor<16x1xi32> to tensor<16x1xi64> loc(#loc360)
    %output_offset_217 = tt.splat %output_stride_0 : i64 -> tensor<16x1xi64> loc(#loc360)
    %output_offset_218 = arith.muli %output_offset_216, %output_offset_217 : tensor<16x1xi64> loc(#loc360)
    %output_offset_219 = tt.expand_dims %query_offset_1_96 {axis = 1 : i32} : tensor<16xi32> -> tensor<16x1xi32> loc(#loc361)
    %output_offset_220 = arith.extsi %output_offset_219 : tensor<16x1xi32> to tensor<16x1xi64> loc(#loc362)
    %output_offset_221 = tt.splat %output_stride_1 : i64 -> tensor<16x1xi64> loc(#loc362)
    %output_offset_222 = arith.muli %output_offset_220, %output_offset_221 : tensor<16x1xi64> loc(#loc362)
    %output_offset_223 = arith.addi %output_offset_218, %output_offset_222 : tensor<16x1xi64> loc(#loc363)
    %output_offset_224 = tt.expand_dims %offs_d {axis = 0 : i32} : tensor<128xi32> -> tensor<1x128xi32> loc(#loc364)
    %output_offset_225 = arith.extsi %output_offset_224 : tensor<1x128xi32> to tensor<1x128xi64> loc(#loc365)
    %output_offset_226 = tt.broadcast %output_offset_223 : tensor<16x1xi64> -> tensor<16x128xi64> loc(#loc365)
    %output_offset_227 = tt.broadcast %output_offset_225 : tensor<1x128xi64> -> tensor<16x128xi64> loc(#loc365)
    %output_offset_228 = arith.addi %output_offset_226, %output_offset_227 : tensor<16x128xi64> loc(#loc365)
    %12 = tt.expand_dims %dim_mask_121 {axis = 0 : i32} : tensor<128xi1> -> tensor<1x128xi1> loc(#loc147)
    %13 = tt.expand_dims %query_mask_0_132 {axis = 1 : i32} : tensor<16xi1> -> tensor<16x1xi1> loc(#loc148)
    %14 = tt.broadcast %12 : tensor<1x128xi1> -> tensor<16x128xi1> loc(#loc149)
    %15 = tt.broadcast %13 : tensor<16x1xi1> -> tensor<16x128xi1> loc(#loc149)
    %16 = arith.andi %14, %15 : tensor<16x128xi1> loc(#loc149)
    %17 = tt.expand_dims %query_mask_1_144 {axis = 1 : i32} : tensor<16xi1> -> tensor<16x1xi1> loc(#loc150)
    %18 = tt.broadcast %17 : tensor<16x1xi1> -> tensor<16x128xi1> loc(#loc151)
    %19 = arith.andi %16, %18 : tensor<16x128xi1> loc(#loc151)
    %20 = tt.splat %output_ptr : !tt.ptr<bf16> -> tensor<16x128x!tt.ptr<bf16>> loc(#loc152)
    %21 = tt.addptr %20, %output_offset_228 : tensor<16x128x!tt.ptr<bf16>>, tensor<16x128xi64> loc(#loc152)
    %22 = arith.truncf %acc_215 : tensor<16x128xf32> to tensor<16x128xbf16> loc(#loc153)
    tt.store %21, %22, %19 : tensor<16x128x!tt.ptr<bf16>> loc(#loc153)
    tt.return loc(#loc154)
  } loc(#loc)
  tt.func private @"vllm.v1.attention.ops.triton_unified_attention.find_seq_idx__Pi32_i32_i32__(3,)cconstexpr_8__(4,)cconstexpr_True_"(%query_start_len_ptr: !tt.ptr<i32> loc("query_start_len_ptr"(#loc155)), %target_idx: i32 loc("target_idx"(#loc155)), %right: i32 loc("right"(#loc368))) -> i32 attributes {noinline = false} {
    %left = arith.constant 0 : i32 loc(#loc389)
    %right_0:2 = scf.while (%left_2 = %left, %right_3 = %right) : (i32, i32) -> (i32, i32) {
      %8 = arith.cmpi slt, %left_2, %right_3 : i32 loc(#loc158)
      scf.condition(%8) %left_2, %right_3 : i32, i32 loc(#loc158)
    } do {
    ^bb0(%left_2: i32 loc("left"(#loc159)), %right_3: i32 loc("right"(#loc160))):
      %mid = arith.extsi %left_2 : i32 to i64 loc(#loc373)
      %mid_4 = arith.extsi %right_3 : i32 to i64 loc(#loc373)
      %mid_5 = arith.addi %mid, %mid_4 : i64 loc(#loc373)
      %mid_6 = arith.constant 2147483647 : i64 loc(#loc373)
      %mid_7 = arith.constant -2147483648 : i64 loc(#loc373)
      %mid_8 = arith.cmpi sle, %mid_5, %mid_6 : i64 loc(#loc373)
      %mid_9 = arith.cmpi sge, %mid_5, %mid_7 : i64 loc(#loc373)
      %mid_10 = arith.andi %mid_8, %mid_9 : i1 loc(#loc373)
      %mid_11 = arith.addi %left_2, %right_3 : i32 loc(#loc373)
      %mid_12 = arith.constant 2 : i32 loc(#loc374)
      %mid_13 = arith.constant 2 : i32 loc(#loc374)
      %right_14 = arith.divsi %mid_11, %mid_13 : i32 loc(#loc391)
      %val = tt.addptr %query_start_len_ptr, %right_14 : !tt.ptr<i32>, i32 loc(#loc375)
      %val_15 = tt.load %val : !tt.ptr<i32> loc(#loc376)
      %mid_val = arith.constant 8 : i32 loc(#loc377)
      %mid_val_16 = arith.constant 8 : i32 loc(#loc377)
      %mid_val_17 = arith.divsi %val_15, %mid_val_16 : i32 loc(#loc377)
      %mid_val_18 = arith.extsi %mid_val_17 : i32 to i64 loc(#loc378)
      %mid_val_19 = arith.extsi %right_14 : i32 to i64 loc(#loc378)
      %mid_val_20 = arith.addi %mid_val_18, %mid_val_19 : i64 loc(#loc378)
      %mid_val_21 = arith.constant 2147483647 : i64 loc(#loc378)
      %mid_val_22 = arith.constant -2147483648 : i64 loc(#loc378)
      %mid_val_23 = arith.cmpi sle, %mid_val_20, %mid_val_21 : i64 loc(#loc378)
      %mid_val_24 = arith.cmpi sge, %mid_val_20, %mid_val_22 : i64 loc(#loc378)
      %mid_val_25 = arith.andi %mid_val_23, %mid_val_24 : i1 loc(#loc378)
      %mid_val_26 = arith.addi %mid_val_17, %right_14 : i32 loc(#loc378)
      %8 = arith.cmpi sle, %mid_val_26, %target_idx : i32 loc(#loc167)
      %9:2 = scf.if %8 -> (i32, i32) {
        %left_27 = arith.constant 1 : i32 loc(#loc379)
        %left_28 = arith.constant 1 : i32 loc(#loc379)
        %left_29 = arith.extsi %right_14 : i32 to i64 loc(#loc379)
        %left_30 = arith.extsi %left_28 : i32 to i64 loc(#loc379)
        %left_31 = arith.addi %left_29, %left_30 : i64 loc(#loc379)
        %left_32 = arith.constant 2147483647 : i64 loc(#loc379)
        %left_33 = arith.constant -2147483648 : i64 loc(#loc379)
        %left_34 = arith.cmpi sle, %left_31, %left_32 : i64 loc(#loc379)
        %left_35 = arith.cmpi sge, %left_31, %left_33 : i64 loc(#loc379)
        %left_36 = arith.andi %left_34, %left_35 : i1 loc(#loc379)
        %left_37 = arith.addi %right_14, %left_28 : i32 loc(#loc392)
        scf.yield %left_37, %right_3 : i32, i32 loc(#loc392)
      } else {
        scf.yield %left_2, %right_14 : i32, i32 loc(#loc18)
      } loc(#loc168)
      scf.yield %9#0, %9#1 : i32, i32 loc(#loc170)
    } loc(#loc390)
    %c1_i32 = arith.constant 1 : i32 loc(#loc171)
    %c1_i32_1 = arith.constant 1 : i32 loc(#loc171)
    %0 = arith.extsi %right_0#0 : i32 to i64 loc(#loc171)
    %1 = arith.extsi %c1_i32_1 : i32 to i64 loc(#loc171)
    %2 = arith.subi %0, %1 : i64 loc(#loc171)
    %c2147483647_i64 = arith.constant 2147483647 : i64 loc(#loc171)
    %c-2147483648_i64 = arith.constant -2147483648 : i64 loc(#loc171)
    %3 = arith.cmpi sle, %2, %c2147483647_i64 : i64 loc(#loc171)
    %4 = arith.cmpi sge, %2, %c-2147483648_i64 : i64 loc(#loc171)
    %5 = arith.andi %3, %4 : i1 loc(#loc171)
    %6 = arith.subi %right_0#0, %c1_i32_1 : i32 loc(#loc171)
    tt.return %6 : i32 loc(#loc172)
  ^bb1:  // no predecessors
    %7 = ub.poison : i32 loc(#loc173)
    tt.return %7 : i32 loc(#loc173)
  } loc(#loc155)
  tt.func private @"triton.language.standard.zeros____(0, 0)cconstexpr_16__(0, 1)cconstexpr_128__(1,)cconstexpr_fp32_"() -> tensor<16x128xf32> attributes {noinline = false} {
    %cst = arith.constant 0.000000e+00 : f32 loc(#loc175)
    %cst_0 = arith.constant dense<0.000000e+00> : tensor<16x128xf32> loc(#loc175)
    tt.return %cst_0 : tensor<16x128xf32> loc(#loc176)
  ^bb1:  // no predecessors
    %0 = ub.poison : tensor<16x128xf32> loc(#loc177)
    tt.return %0 : tensor<16x128xf32> loc(#loc177)
  } loc(#loc174)
  tt.func private @"vllm.v1.attention.ops.triton_unified_attention.cdiv_fn__i32__(1,)cconstexpr_32_"(%x: i32 loc("x"(#loc178))) -> i32 attributes {noinline = false} {
    %c32_i32 = arith.constant 32 : i32 loc(#loc179)
    %c32_i32_0 = arith.constant 32 : i32 loc(#loc179)
    %0 = arith.extsi %x : i32 to i64 loc(#loc179)
    %1 = arith.extsi %c32_i32_0 : i32 to i64 loc(#loc179)
    %2 = arith.addi %0, %1 : i64 loc(#loc179)
    %c2147483647_i64 = arith.constant 2147483647 : i64 loc(#loc179)
    %c-2147483648_i64 = arith.constant -2147483648 : i64 loc(#loc179)
    %3 = arith.cmpi sle, %2, %c2147483647_i64 : i64 loc(#loc179)
    %4 = arith.cmpi sge, %2, %c-2147483648_i64 : i64 loc(#loc179)
    %5 = arith.andi %3, %4 : i1 loc(#loc179)
    %6 = arith.addi %x, %c32_i32_0 : i32 loc(#loc179)
    %c1_i32 = arith.constant 1 : i32 loc(#loc180)
    %c1_i32_1 = arith.constant 1 : i32 loc(#loc180)
    %7 = arith.extsi %6 : i32 to i64 loc(#loc180)
    %8 = arith.extsi %c1_i32_1 : i32 to i64 loc(#loc180)
    %9 = arith.subi %7, %8 : i64 loc(#loc180)
    %c2147483647_i64_2 = arith.constant 2147483647 : i64 loc(#loc180)
    %c-2147483648_i64_3 = arith.constant -2147483648 : i64 loc(#loc180)
    %10 = arith.cmpi sle, %9, %c2147483647_i64_2 : i64 loc(#loc180)
    %11 = arith.cmpi sge, %9, %c-2147483648_i64_3 : i64 loc(#loc180)
    %12 = arith.andi %10, %11 : i1 loc(#loc180)
    %13 = arith.subi %6, %c1_i32_1 : i32 loc(#loc180)
    %c32_i32_4 = arith.constant 32 : i32 loc(#loc181)
    %c32_i32_5 = arith.constant 32 : i32 loc(#loc181)
    %14 = arith.divsi %13, %c32_i32_5 : i32 loc(#loc181)
    tt.return %14 : i32 loc(#loc182)
  ^bb1:  // no predecessors
    %15 = ub.poison : i32 loc(#loc183)
    tt.return %15 : i32 loc(#loc183)
  } loc(#loc178)
  tt.func private @"triton.language.standard.zeros____(0, 0)cconstexpr_16__(0, 1)cconstexpr_32__(1,)cconstexpr_fp32_"() -> tensor<16x32xf32> attributes {noinline = false} {
    %cst = arith.constant 0.000000e+00 : f32 loc(#loc175)
    %cst_0 = arith.constant dense<0.000000e+00> : tensor<16x32xf32> loc(#loc175)
    tt.return %cst_0 : tensor<16x32xf32> loc(#loc176)
  ^bb1:  // no predecessors
    %0 = ub.poison : tensor<16x32xf32> loc(#loc177)
    tt.return %0 : tensor<16x32xf32> loc(#loc177)
  } loc(#loc174)
  tt.func private @"triton.language.standard.max__fp32S16_32S__(1,)cconstexpr_1__(2,)cconstexpr_False__(3,)cconstexpr_True__(4,)cconstexpr_False_"(%input: tensor<16x32xf32> loc("input"(#loc184))) -> tensor<16xf32> attributes {noinline = false} {
    %0 = "tt.reduce"(%input) <{axis = 1 : i32}> ({
    ^bb0(%arg1: f32 loc(unknown), %arg2: f32 loc(unknown)):
      %2 = tt.call @triton.language.standard._elementwise_max__fp32_fp32__(%arg1, %arg2) : (f32, f32) -> f32 loc(#loc185)
      tt.reduce.return %2 : f32 loc(#loc185)
    }) : (tensor<16x32xf32>) -> tensor<16xf32> loc(#loc185)
    tt.return %0 : tensor<16xf32> loc(#loc186)
  ^bb1:  // no predecessors
    %1 = ub.poison : tensor<16xf32> loc(#loc187)
    tt.return %1 : tensor<16xf32> loc(#loc187)
  } loc(#loc184)
  tt.func private @triton.language.standard._elementwise_max__fp32_fp32__(%a: f32 loc("a"(#loc188)), %b: f32 loc("b"(#loc188))) -> f32 attributes {noinline = false} {
    %0 = arith.maxnumf %a, %b : f32 loc(#loc189)
    tt.return %0 : f32 loc(#loc190)
  ^bb1:  // no predecessors
    %1 = ub.poison : f32 loc(#loc191)
    tt.return %1 : f32 loc(#loc191)
  } loc(#loc188)
  tt.func private @"triton.language.standard.sum__fp32S16_32S__(1,)cconstexpr_1__(2,)cconstexpr_False__(3,)cNone"(%input: tensor<16x32xf32> loc("input"(#loc192))) -> tensor<16xf32> attributes {noinline = false} {
    %0 = "tt.reduce"(%input) <{axis = 1 : i32}> ({
    ^bb0(%arg1: f32 loc(unknown), %arg2: f32 loc(unknown)):
      %2 = tt.call @triton.language.standard._sum_combine__fp32_fp32__(%arg1, %arg2) : (f32, f32) -> f32 loc(#loc193)
      tt.reduce.return %2 : f32 loc(#loc193)
    }) : (tensor<16x32xf32>) -> tensor<16xf32> loc(#loc193)
    tt.return %0 : tensor<16xf32> loc(#loc194)
  ^bb1:  // no predecessors
    %1 = ub.poison : tensor<16xf32> loc(#loc195)
    tt.return %1 : tensor<16xf32> loc(#loc195)
  } loc(#loc192)
  tt.func private @triton.language.standard._sum_combine__fp32_fp32__(%a: f32 loc("a"(#loc196)), %b: f32 loc("b"(#loc196))) -> f32 attributes {noinline = false} {
    %0 = arith.addf %a, %b : f32 loc(#loc197)
    tt.return %0 : f32 loc(#loc198)
  ^bb1:  // no predecessors
    %1 = ub.poison : f32 loc(#loc199)
    tt.return %1 : f32 loc(#loc199)
  } loc(#loc196)
} loc(#loc)
#loc1 = loc("/home/ubuntu/miniconda3/envs/llm/lib/python3.12/site-packages/vllm/v1/attention/ops/triton_unified_attention.py":109:39)
#loc2 = loc("/home/ubuntu/miniconda3/envs/llm/lib/python3.12/site-packages/vllm/v1/attention/ops/triton_unified_attention.py":110:32)
#loc3 = loc("/home/ubuntu/miniconda3/envs/llm/lib/python3.12/site-packages/vllm/v1/attention/ops/triton_unified_attention.py":113:68)
#loc4 = loc("/home/ubuntu/miniconda3/envs/llm/lib/python3.12/site-packages/vllm/v1/attention/ops/triton_unified_attention.py":116:54)
#loc5 = loc("/home/ubuntu/miniconda3/envs/llm/lib/python3.12/site-packages/vllm/v1/attention/ops/triton_unified_attention.py":116:32)
#loc6 = loc("/home/ubuntu/miniconda3/envs/llm/lib/python3.12/site-packages/vllm/v1/attention/ops/triton_unified_attention.py":116:66)
#loc7 = loc("/home/ubuntu/miniconda3/envs/llm/lib/python3.12/site-packages/vllm/v1/attention/ops/triton_unified_attention.py":116:76)
#loc8 = loc("/home/ubuntu/miniconda3/envs/llm/lib/python3.12/site-packages/vllm/v1/attention/ops/triton_unified_attention.py":118:45)
#loc9 = loc("/home/ubuntu/miniconda3/envs/llm/lib/python3.12/site-packages/vllm/v1/attention/ops/triton_unified_attention.py":120:65)
#loc10 = loc("/home/ubuntu/miniconda3/envs/llm/lib/python3.12/site-packages/vllm/v1/attention/ops/triton_unified_attention.py":120:43)
#loc11 = loc("/home/ubuntu/miniconda3/envs/llm/lib/python3.12/site-packages/vllm/v1/attention/ops/triton_unified_attention.py":121:64)
#loc12 = loc("/home/ubuntu/miniconda3/envs/llm/lib/python3.12/site-packages/vllm/v1/attention/ops/triton_unified_attention.py":121:74)
#loc13 = loc("/home/ubuntu/miniconda3/envs/llm/lib/python3.12/site-packages/vllm/v1/attention/ops/triton_unified_attention.py":121:42)
#loc14 = loc("/home/ubuntu/miniconda3/envs/llm/lib/python3.12/site-packages/vllm/v1/attention/ops/triton_unified_attention.py":123:56)
#loc15 = loc("/home/ubuntu/miniconda3/envs/llm/lib/python3.12/site-packages/vllm/v1/attention/ops/triton_unified_attention.py":125:27)
#loc16 = loc("/home/ubuntu/miniconda3/envs/llm/lib/python3.12/site-packages/vllm/v1/attention/ops/triton_unified_attention.py":125:38)
#loc17 = loc("/home/ubuntu/miniconda3/envs/llm/lib/python3.12/site-packages/vllm/v1/attention/ops/triton_unified_attention.py":126:8)
#loc19 = loc("/home/ubuntu/miniconda3/envs/llm/lib/python3.12/site-packages/vllm/v1/attention/ops/triton_unified_attention.py":128:26)
#loc20 = loc("/home/ubuntu/miniconda3/envs/llm/lib/python3.12/site-packages/vllm/v1/attention/ops/triton_unified_attention.py":129:26)
#loc21 = loc("/home/ubuntu/miniconda3/envs/llm/lib/python3.12/site-packages/vllm/v1/attention/ops/triton_unified_attention.py":130:26)
#loc22 = loc("/home/ubuntu/miniconda3/envs/llm/lib/python3.12/site-packages/vllm/v1/attention/ops/triton_unified_attention.py":131:36)
#loc23 = loc("/home/ubuntu/miniconda3/envs/llm/lib/python3.12/site-packages/vllm/v1/attention/ops/triton_unified_attention.py":131:56)
#loc24 = loc("/home/ubuntu/miniconda3/envs/llm/lib/python3.12/site-packages/vllm/v1/attention/ops/triton_unified_attention.py":131:46)
#loc25 = loc("/home/ubuntu/miniconda3/envs/llm/lib/python3.12/site-packages/vllm/v1/attention/ops/triton_unified_attention.py":133:52)
#loc26 = loc("/home/ubuntu/miniconda3/envs/llm/lib/python3.12/site-packages/vllm/v1/attention/ops/triton_unified_attention.py":134:35)
#loc27 = loc("/home/ubuntu/miniconda3/envs/llm/lib/python3.12/site-packages/vllm/v1/attention/ops/triton_unified_attention.py":134:65)
#loc28 = loc("/home/ubuntu/miniconda3/envs/llm/lib/python3.12/site-packages/vllm/v1/attention/ops/triton_unified_attention.py":134:56)
#loc29 = loc("/home/ubuntu/miniconda3/envs/llm/lib/python3.12/site-packages/vllm/v1/attention/ops/triton_unified_attention.py":136:23)
#loc30 = loc("/home/ubuntu/miniconda3/envs/llm/lib/python3.12/site-packages/vllm/v1/attention/ops/triton_unified_attention.py":136:34)
#loc31 = loc("/home/ubuntu/miniconda3/envs/llm/lib/python3.12/site-packages/vllm/v1/attention/ops/triton_unified_attention.py":137:25)
#loc32 = loc("/home/ubuntu/miniconda3/envs/llm/lib/python3.12/site-packages/vllm/v1/attention/ops/triton_unified_attention.py":137:36)
#loc33 = loc("/home/ubuntu/miniconda3/envs/llm/lib/python3.12/site-packages/vllm/v1/attention/ops/triton_unified_attention.py":137:10)
#loc34 = loc("/home/ubuntu/miniconda3/envs/llm/lib/python3.12/site-packages/vllm/v1/attention/ops/triton_unified_attention.py":138:17)
#loc35 = loc("/home/ubuntu/miniconda3/envs/llm/lib/python3.12/site-packages/vllm/v1/attention/ops/triton_unified_attention.py":138:10)
#loc36 = loc("/home/ubuntu/miniconda3/envs/llm/lib/python3.12/site-packages/vllm/v1/attention/ops/triton_unified_attention.py":141:33)
#loc37 = loc("/home/ubuntu/miniconda3/envs/llm/lib/python3.12/site-packages/vllm/v1/attention/ops/triton_unified_attention.py":141:47)
#loc38 = loc("/home/ubuntu/miniconda3/envs/llm/lib/python3.12/site-packages/vllm/v1/attention/ops/triton_unified_attention.py":141:53)
#loc39 = loc("/home/ubuntu/miniconda3/envs/llm/lib/python3.12/site-packages/vllm/v1/attention/ops/triton_unified_attention.py":142:40)
#loc40 = loc("/home/ubuntu/miniconda3/envs/llm/lib/python3.12/site-packages/vllm/v1/attention/ops/triton_unified_attention.py":142:64)
#loc41 = loc("/home/ubuntu/miniconda3/envs/llm/lib/python3.12/site-packages/vllm/v1/attention/ops/triton_unified_attention.py":142:70)
#loc42 = loc("/home/ubuntu/miniconda3/envs/llm/lib/python3.12/site-packages/vllm/v1/attention/ops/triton_unified_attention.py":143:45)
#loc43 = loc("/home/ubuntu/miniconda3/envs/llm/lib/python3.12/site-packages/vllm/v1/attention/ops/triton_unified_attention.py":143:65)
#loc44 = loc("/home/ubuntu/miniconda3/envs/llm/lib/python3.12/site-packages/vllm/v1/attention/ops/triton_unified_attention.py":143:71)
#loc45 = loc("/home/ubuntu/miniconda3/envs/llm/lib/python3.12/site-packages/vllm/v1/attention/ops/triton_unified_attention.py":148:22)
#loc46 = loc("/home/ubuntu/miniconda3/envs/llm/lib/python3.12/site-packages/vllm/v1/attention/ops/triton_unified_attention.py":148:46)
#loc47 = loc("/home/ubuntu/miniconda3/envs/llm/lib/python3.12/site-packages/vllm/v1/attention/ops/triton_unified_attention.py":148:33)
#loc48 = loc("/home/ubuntu/miniconda3/envs/llm/lib/python3.12/site-packages/vllm/v1/attention/ops/triton_unified_attention.py":148:70)
#loc49 = loc("/home/ubuntu/miniconda3/envs/llm/lib/python3.12/site-packages/vllm/v1/attention/ops/triton_unified_attention.py":148:57)
#loc50 = loc("/home/ubuntu/miniconda3/envs/llm/lib/python3.12/site-packages/vllm/v1/attention/ops/triton_unified_attention.py":147:20)
#loc51 = loc("/home/ubuntu/miniconda3/envs/llm/lib/python3.12/site-packages/vllm/v1/attention/ops/triton_unified_attention.py":147:8)
#loc52 = loc("/home/ubuntu/miniconda3/envs/llm/lib/python3.12/site-packages/vllm/v1/attention/ops/triton_unified_attention.py":152:35)
#loc53 = loc("/home/ubuntu/miniconda3/envs/llm/lib/python3.12/site-packages/vllm/v1/attention/ops/triton_unified_attention.py":155:31)
#loc54 = loc("/home/ubuntu/miniconda3/envs/llm/lib/python3.12/site-packages/vllm/v1/attention/ops/triton_unified_attention.py":163:27)
#loc55 = loc("/home/ubuntu/miniconda3/envs/llm/lib/python3.12/site-packages/vllm/v1/attention/ops/triton_unified_attention.py":164:19)
#loc56 = loc("/home/ubuntu/miniconda3/envs/llm/lib/python3.12/site-packages/vllm/v1/attention/ops/triton_unified_attention.py":167:37)
#loc57 = loc("/home/ubuntu/miniconda3/envs/llm/lib/python3.12/site-packages/vllm/v1/attention/ops/triton_unified_attention.py":167:22)
#loc58 = loc("/home/ubuntu/miniconda3/envs/llm/lib/python3.12/site-packages/vllm/v1/attention/ops/triton_unified_attention.py":170:28)
#loc59 = loc("/home/ubuntu/miniconda3/envs/llm/lib/python3.12/site-packages/vllm/v1/attention/ops/triton_unified_attention.py":188:30)
#loc60 = loc("/home/ubuntu/miniconda3/envs/llm/lib/python3.12/site-packages/vllm/v1/attention/ops/triton_unified_attention.py":188:10)
#loc61 = loc("/home/ubuntu/miniconda3/envs/llm/lib/python3.12/site-packages/vllm/v1/attention/ops/triton_unified_attention.py":189:10)
#loc62 = loc("/home/ubuntu/miniconda3/envs/llm/lib/python3.12/site-packages/vllm/v1/attention/ops/triton_unified_attention.py":190:10)
#loc63 = loc("/home/ubuntu/miniconda3/envs/llm/lib/python3.12/site-packages/vllm/v1/attention/ops/triton_unified_attention.py":200:60)
#loc64 = loc("/home/ubuntu/miniconda3/envs/llm/lib/python3.12/site-packages/vllm/v1/attention/ops/triton_unified_attention.py":205:44)
#loc65 = loc("/home/ubuntu/miniconda3/envs/llm/lib/python3.12/site-packages/vllm/v1/attention/ops/triton_unified_attention.py":209:17)
#loc66 = loc("/home/ubuntu/miniconda3/envs/llm/lib/python3.12/site-packages/vllm/v1/attention/ops/triton_unified_attention.py":231:31)
#loc67 = loc("/home/ubuntu/miniconda3/envs/llm/lib/python3.12/site-packages/vllm/v1/attention/ops/triton_unified_attention.py":232:25)
#loc68 = loc("/home/ubuntu/miniconda3/envs/llm/lib/python3.12/site-packages/vllm/v1/attention/ops/triton_unified_attention.py":232:37)
#loc69 = loc("/home/ubuntu/miniconda3/envs/llm/lib/python3.12/site-packages/vllm/v1/attention/ops/triton_unified_attention.py":233:33)
#loc70 = loc("/home/ubuntu/miniconda3/envs/llm/lib/python3.12/site-packages/vllm/v1/attention/ops/triton_unified_attention.py":236:31)
#loc71 = loc("/home/ubuntu/miniconda3/envs/llm/lib/python3.12/site-packages/vllm/v1/attention/ops/triton_unified_attention.py":236:66)
#loc72 = loc("/home/ubuntu/miniconda3/envs/llm/lib/python3.12/site-packages/vllm/v1/attention/ops/triton_unified_attention.py":236:52)
#loc73 = loc("/home/ubuntu/miniconda3/envs/llm/lib/python3.12/site-packages/vllm/v1/attention/ops/triton_unified_attention.py":236:12)
#loc74 = loc("/home/ubuntu/miniconda3/envs/llm/lib/python3.12/site-packages/vllm/v1/attention/ops/triton_unified_attention.py":237:13)
#loc75 = loc("/home/ubuntu/miniconda3/envs/llm/lib/python3.12/site-packages/vllm/v1/attention/ops/triton_unified_attention.py":240:31)
#loc76 = loc("/home/ubuntu/miniconda3/envs/llm/lib/python3.12/site-packages/vllm/v1/attention/ops/triton_unified_attention.py":240:42)
#loc77 = loc("/home/ubuntu/miniconda3/envs/llm/lib/python3.12/site-packages/vllm/v1/attention/ops/triton_unified_attention.py":241:28)
#loc78 = loc("/home/ubuntu/miniconda3/envs/llm/lib/python3.12/site-packages/vllm/v1/attention/ops/triton_unified_attention.py":241:14)
#loc79 = loc("/home/ubuntu/miniconda3/envs/llm/lib/python3.12/site-packages/vllm/v1/attention/ops/triton_unified_attention.py":242:21)
#loc80 = loc("/home/ubuntu/miniconda3/envs/llm/lib/python3.12/site-packages/vllm/v1/attention/ops/triton_unified_attention.py":242:32)
#loc81 = loc("/home/ubuntu/miniconda3/envs/llm/lib/python3.12/site-packages/vllm/v1/attention/ops/triton_unified_attention.py":242:14)
#loc82 = loc("/home/ubuntu/miniconda3/envs/llm/lib/python3.12/site-packages/vllm/v1/attention/ops/triton_unified_attention.py":243:28)
#loc83 = loc("/home/ubuntu/miniconda3/envs/llm/lib/python3.12/site-packages/vllm/v1/attention/ops/triton_unified_attention.py":243:40)
#loc84 = loc("/home/ubuntu/miniconda3/envs/llm/lib/python3.12/site-packages/vllm/v1/attention/ops/triton_unified_attention.py":243:51)
#loc85 = loc("/home/ubuntu/miniconda3/envs/llm/lib/python3.12/site-packages/vllm/v1/attention/ops/triton_unified_attention.py":243:14)
#loc86 = loc("/home/ubuntu/miniconda3/envs/llm/lib/python3.12/site-packages/vllm/v1/attention/ops/triton_unified_attention.py":247:31)
#loc87 = loc("/home/ubuntu/miniconda3/envs/llm/lib/python3.12/site-packages/vllm/v1/attention/ops/triton_unified_attention.py":247:42)
#loc88 = loc("/home/ubuntu/miniconda3/envs/llm/lib/python3.12/site-packages/vllm/v1/attention/ops/triton_unified_attention.py":248:28)
#loc89 = loc("/home/ubuntu/miniconda3/envs/llm/lib/python3.12/site-packages/vllm/v1/attention/ops/triton_unified_attention.py":248:14)
#loc90 = loc("/home/ubuntu/miniconda3/envs/llm/lib/python3.12/site-packages/vllm/v1/attention/ops/triton_unified_attention.py":249:21)
#loc91 = loc("/home/ubuntu/miniconda3/envs/llm/lib/python3.12/site-packages/vllm/v1/attention/ops/triton_unified_attention.py":249:32)
#loc92 = loc("/home/ubuntu/miniconda3/envs/llm/lib/python3.12/site-packages/vllm/v1/attention/ops/triton_unified_attention.py":249:14)
#loc93 = loc("/home/ubuntu/miniconda3/envs/llm/lib/python3.12/site-packages/vllm/v1/attention/ops/triton_unified_attention.py":250:28)
#loc94 = loc("/home/ubuntu/miniconda3/envs/llm/lib/python3.12/site-packages/vllm/v1/attention/ops/triton_unified_attention.py":250:40)
#loc95 = loc("/home/ubuntu/miniconda3/envs/llm/lib/python3.12/site-packages/vllm/v1/attention/ops/triton_unified_attention.py":250:51)
#loc96 = loc("/home/ubuntu/miniconda3/envs/llm/lib/python3.12/site-packages/vllm/v1/attention/ops/triton_unified_attention.py":250:14)
#loc97 = loc("/home/ubuntu/miniconda3/envs/llm/lib/python3.12/site-packages/vllm/v1/attention/ops/triton_unified_attention.py":256:26)
#loc98 = loc("/home/ubuntu/miniconda3/envs/llm/lib/python3.12/site-packages/vllm/v1/attention/ops/triton_unified_attention.py":256:47)
#loc99 = loc("/home/ubuntu/miniconda3/envs/llm/lib/python3.12/site-packages/vllm/v1/attention/ops/triton_unified_attention.py":256:37)
#loc100 = loc("/home/ubuntu/miniconda3/envs/llm/lib/python3.12/site-packages/vllm/v1/attention/ops/triton_unified_attention.py":255:28)
#loc101 = loc("/home/ubuntu/miniconda3/envs/llm/lib/python3.12/site-packages/vllm/v1/attention/ops/triton_unified_attention.py":255:12)
#loc102 = loc("/home/ubuntu/miniconda3/envs/llm/lib/python3.12/site-packages/vllm/v1/attention/ops/triton_unified_attention.py":271:26)
#loc103 = loc("/home/ubuntu/miniconda3/envs/llm/lib/python3.12/site-packages/vllm/v1/attention/ops/triton_unified_attention.py":271:47)
#loc104 = loc("/home/ubuntu/miniconda3/envs/llm/lib/python3.12/site-packages/vllm/v1/attention/ops/triton_unified_attention.py":271:37)
#loc105 = loc("/home/ubuntu/miniconda3/envs/llm/lib/python3.12/site-packages/vllm/v1/attention/ops/triton_unified_attention.py":270:30)
#loc106 = loc("/home/ubuntu/miniconda3/envs/llm/lib/python3.12/site-packages/vllm/v1/attention/ops/triton_unified_attention.py":270:12)
#loc107 = loc("/home/ubuntu/miniconda3/envs/llm/lib/python3.12/site-packages/vllm/v1/attention/ops/triton_unified_attention.py":284:48)
#loc108 = loc("/home/ubuntu/miniconda3/envs/llm/lib/python3.12/site-packages/vllm/v1/attention/ops/triton_unified_attention.py":284:38)
#loc109 = loc("/home/ubuntu/miniconda3/envs/llm/lib/python3.12/site-packages/vllm/v1/attention/ops/triton_unified_attention.py":285:30)
#loc110 = loc("/home/ubuntu/miniconda3/envs/llm/lib/python3.12/site-packages/vllm/v1/attention/ops/triton_unified_attention.py":285:42)
#loc111 = loc("/home/ubuntu/miniconda3/envs/llm/lib/python3.12/site-packages/vllm/v1/attention/ops/triton_unified_attention.py":317:49)
#loc112 = loc("/home/ubuntu/miniconda3/envs/llm/lib/python3.12/site-packages/vllm/v1/attention/ops/triton_unified_attention.py":319:31)
#loc113 = loc("/home/ubuntu/miniconda3/envs/llm/lib/python3.12/site-packages/vllm/v1/attention/ops/triton_unified_attention.py":319:21)
#loc114 = loc("/home/ubuntu/miniconda3/envs/llm/lib/python3.12/site-packages/vllm/v1/attention/ops/triton_unified_attention.py":319:13)
#loc115 = loc("/home/ubuntu/miniconda3/envs/llm/lib/python3.12/site-packages/vllm/v1/attention/ops/triton_unified_attention.py":325:25)
#loc116 = loc("/home/ubuntu/miniconda3/envs/llm/lib/python3.12/site-packages/vllm/v1/attention/ops/triton_unified_attention.py":325:49)
#loc117 = loc("/home/ubuntu/miniconda3/envs/llm/lib/python3.12/site-packages/vllm/v1/attention/ops/triton_unified_attention.py":325:36)
#loc118 = loc("/home/ubuntu/miniconda3/envs/llm/lib/python3.12/site-packages/vllm/v1/attention/ops/triton_unified_attention.py":325:60)
#loc119 = loc("/home/ubuntu/miniconda3/envs/llm/lib/python3.12/site-packages/vllm/v1/attention/ops/triton_unified_attention.py":325:73)
#loc120 = loc("/home/ubuntu/miniconda3/envs/llm/lib/python3.12/site-packages/vllm/v1/attention/ops/triton_unified_attention.py":354:35)
#loc121 = loc("/home/ubuntu/miniconda3/envs/llm/lib/python3.12/site-packages/vllm/v1/attention/ops/triton_unified_attention.py":354:28)
#loc122 = loc("/home/ubuntu/miniconda3/envs/llm/lib/python3.12/site-packages/vllm/v1/attention/ops/triton_unified_attention.py":358:29)
#loc123 = loc("/home/ubuntu/miniconda3/envs/llm/lib/python3.12/site-packages/vllm/v1/attention/ops/triton_unified_attention.py":358:49)
#loc124 = loc("/home/ubuntu/miniconda3/envs/llm/lib/python3.12/site-packages/vllm/v1/attention/ops/triton_unified_attention.py":361:27)
#loc125 = loc("/home/ubuntu/miniconda3/envs/llm/lib/python3.12/site-packages/vllm/v1/attention/ops/triton_unified_attention.py":361:23)
#loc126 = loc("/home/ubuntu/miniconda3/envs/llm/lib/python3.12/site-packages/vllm/v1/attention/ops/triton_unified_attention.py":361:19)
#loc127 = loc("/home/ubuntu/miniconda3/envs/llm/lib/python3.12/site-packages/vllm/v1/attention/ops/triton_unified_attention.py":364:21)
#loc128 = loc("/home/ubuntu/miniconda3/envs/llm/lib/python3.12/site-packages/vllm/v1/attention/ops/triton_unified_attention.py":367:27)
#loc129 = loc("/home/ubuntu/miniconda3/envs/llm/lib/python3.12/site-packages/vllm/v1/attention/ops/triton_unified_attention.py":367:23)
#loc130 = loc("/home/ubuntu/miniconda3/envs/llm/lib/python3.12/site-packages/vllm/v1/attention/ops/triton_unified_attention.py":370:26)
#loc131 = loc("/home/ubuntu/miniconda3/envs/llm/lib/python3.12/site-packages/vllm/v1/attention/ops/triton_unified_attention.py":370:20)
#loc132 = loc("/home/ubuntu/miniconda3/envs/llm/lib/python3.12/site-packages/vllm/v1/attention/ops/triton_unified_attention.py":373:16)
#loc133 = loc("/home/ubuntu/miniconda3/envs/llm/lib/python3.12/site-packages/vllm/v1/attention/ops/triton_unified_attention.py":373:24)
#loc134 = loc("/home/ubuntu/miniconda3/envs/llm/lib/python3.12/site-packages/vllm/v1/attention/ops/triton_unified_attention.py":383:27)
#loc135 = loc("/home/ubuntu/miniconda3/envs/llm/lib/python3.12/site-packages/vllm/v1/attention/ops/triton_unified_attention.py":383:37)
#loc136 = loc("/home/ubuntu/miniconda3/envs/llm/lib/python3.12/site-packages/vllm/v1/attention/ops/triton_unified_attention.py":383:15)
#loc137 = loc("/home/ubuntu/miniconda3/envs/llm/lib/python3.12/site-packages/vllm/v1/attention/ops/triton_unified_attention.py":383:8)
#loc138 = loc("/home/ubuntu/miniconda3/envs/llm/lib/python3.12/site-packages/vllm/v1/attention/ops/triton_unified_attention.py":386:18)
#loc139 = loc("/home/ubuntu/miniconda3/envs/llm/lib/python3.12/site-packages/vllm/v1/attention/ops/triton_unified_attention.py":386:16)
#loc140 = loc("/home/ubuntu/miniconda3/envs/llm/lib/python3.12/site-packages/vllm/v1/attention/ops/triton_unified_attention.py":392:23)
#loc141 = loc("/home/ubuntu/miniconda3/envs/llm/lib/python3.12/site-packages/vllm/v1/attention/ops/triton_unified_attention.py":392:34)
#loc142 = loc("/home/ubuntu/miniconda3/envs/llm/lib/python3.12/site-packages/vllm/v1/attention/ops/triton_unified_attention.py":393:25)
#loc143 = loc("/home/ubuntu/miniconda3/envs/llm/lib/python3.12/site-packages/vllm/v1/attention/ops/triton_unified_attention.py":393:36)
#loc144 = loc("/home/ubuntu/miniconda3/envs/llm/lib/python3.12/site-packages/vllm/v1/attention/ops/triton_unified_attention.py":393:10)
#loc145 = loc("/home/ubuntu/miniconda3/envs/llm/lib/python3.12/site-packages/vllm/v1/attention/ops/triton_unified_attention.py":394:17)
#loc146 = loc("/home/ubuntu/miniconda3/envs/llm/lib/python3.12/site-packages/vllm/v1/attention/ops/triton_unified_attention.py":394:10)
#loc147 = loc("/home/ubuntu/miniconda3/envs/llm/lib/python3.12/site-packages/vllm/v1/attention/ops/triton_unified_attention.py":400:22)
#loc148 = loc("/home/ubuntu/miniconda3/envs/llm/lib/python3.12/site-packages/vllm/v1/attention/ops/triton_unified_attention.py":400:46)
#loc149 = loc("/home/ubuntu/miniconda3/envs/llm/lib/python3.12/site-packages/vllm/v1/attention/ops/triton_unified_attention.py":400:33)
#loc150 = loc("/home/ubuntu/miniconda3/envs/llm/lib/python3.12/site-packages/vllm/v1/attention/ops/triton_unified_attention.py":400:70)
#loc151 = loc("/home/ubuntu/miniconda3/envs/llm/lib/python3.12/site-packages/vllm/v1/attention/ops/triton_unified_attention.py":400:57)
#loc152 = loc("/home/ubuntu/miniconda3/envs/llm/lib/python3.12/site-packages/vllm/v1/attention/ops/triton_unified_attention.py":398:21)
#loc153 = loc("/home/ubuntu/miniconda3/envs/llm/lib/python3.12/site-packages/vllm/v1/attention/ops/triton_unified_attention.py":399:8)
#loc154 = loc("/home/ubuntu/miniconda3/envs/llm/lib/python3.12/site-packages/vllm/v1/attention/ops/triton_unified_attention.py":397:4)
#loc156 = loc("/home/ubuntu/miniconda3/envs/llm/lib/python3.12/site-packages/vllm/v1/attention/ops/triton_unified_attention.py":41:21)
#loc157 = loc("/home/ubuntu/miniconda3/envs/llm/lib/python3.12/site-packages/vllm/v1/attention/ops/triton_unified_attention.py":43:4)
#loc158 = loc("/home/ubuntu/miniconda3/envs/llm/lib/python3.12/site-packages/vllm/v1/attention/ops/triton_unified_attention.py":43:17)
#loc161 = loc("/home/ubuntu/miniconda3/envs/llm/lib/python3.12/site-packages/vllm/v1/attention/ops/triton_unified_attention.py":44:22)
#loc162 = loc("/home/ubuntu/miniconda3/envs/llm/lib/python3.12/site-packages/vllm/v1/attention/ops/triton_unified_attention.py":44:32)
#loc163 = loc("/home/ubuntu/miniconda3/envs/llm/lib/python3.12/site-packages/vllm/v1/attention/ops/triton_unified_attention.py":45:44)
#loc164 = loc("/home/ubuntu/miniconda3/envs/llm/lib/python3.12/site-packages/vllm/v1/attention/ops/triton_unified_attention.py":45:22)
#loc165 = loc("/home/ubuntu/miniconda3/envs/llm/lib/python3.12/site-packages/vllm/v1/attention/ops/triton_unified_attention.py":46:25)
#loc166 = loc("/home/ubuntu/miniconda3/envs/llm/lib/python3.12/site-packages/vllm/v1/attention/ops/triton_unified_attention.py":46:35)
#loc167 = loc("/home/ubuntu/miniconda3/envs/llm/lib/python3.12/site-packages/vllm/v1/attention/ops/triton_unified_attention.py":48:22)
#loc168 = loc("/home/ubuntu/miniconda3/envs/llm/lib/python3.12/site-packages/vllm/v1/attention/ops/triton_unified_attention.py":48:11)
#loc169 = loc("/home/ubuntu/miniconda3/envs/llm/lib/python3.12/site-packages/vllm/v1/attention/ops/triton_unified_attention.py":49:25)
#loc170 = loc("/home/ubuntu/miniconda3/envs/llm/lib/python3.12/site-packages/vllm/v1/attention/ops/triton_unified_attention.py":48:8)
#loc171 = loc("/home/ubuntu/miniconda3/envs/llm/lib/python3.12/site-packages/vllm/v1/attention/ops/triton_unified_attention.py":53:18)
#loc172 = loc("/home/ubuntu/miniconda3/envs/llm/lib/python3.12/site-packages/vllm/v1/attention/ops/triton_unified_attention.py":53:11)
#loc173 = loc("/home/ubuntu/miniconda3/envs/llm/lib/python3.12/site-packages/vllm/v1/attention/ops/triton_unified_attention.py":53:4)
#loc174 = loc("/home/ubuntu/miniconda3/envs/llm/lib/python3.12/site-packages/triton/language/standard.py":118:0)
#loc175 = loc("/home/ubuntu/miniconda3/envs/llm/lib/python3.12/site-packages/triton/language/standard.py":127:31)
#loc176 = loc("/home/ubuntu/miniconda3/envs/llm/lib/python3.12/site-packages/triton/language/standard.py":127:11)
#loc177 = loc("/home/ubuntu/miniconda3/envs/llm/lib/python3.12/site-packages/triton/language/standard.py":127:4)
#loc179 = loc("/home/ubuntu/miniconda3/envs/llm/lib/python3.12/site-packages/vllm/v1/attention/ops/triton_unified_attention.py":22:16)
#loc180 = loc("/home/ubuntu/miniconda3/envs/llm/lib/python3.12/site-packages/vllm/v1/attention/ops/triton_unified_attention.py":22:20)
#loc181 = loc("/home/ubuntu/miniconda3/envs/llm/lib/python3.12/site-packages/vllm/v1/attention/ops/triton_unified_attention.py":22:26)
#loc182 = loc("/home/ubuntu/miniconda3/envs/llm/lib/python3.12/site-packages/vllm/v1/attention/ops/triton_unified_attention.py":22:11)
#loc183 = loc("/home/ubuntu/miniconda3/envs/llm/lib/python3.12/site-packages/vllm/v1/attention/ops/triton_unified_attention.py":22:4)
#loc185 = loc("/home/ubuntu/miniconda3/envs/llm/lib/python3.12/site-packages/triton/language/standard.py":189:40)
#loc186 = loc("/home/ubuntu/miniconda3/envs/llm/lib/python3.12/site-packages/triton/language/standard.py":189:15)
#loc187 = loc("/home/ubuntu/miniconda3/envs/llm/lib/python3.12/site-packages/triton/language/standard.py":177:4)
#loc189 = loc("/home/ubuntu/miniconda3/envs/llm/lib/python3.12/site-packages/triton/language/standard.py":168:27)
#loc190 = loc("/home/ubuntu/miniconda3/envs/llm/lib/python3.12/site-packages/triton/language/standard.py":168:11)
#loc191 = loc("/home/ubuntu/miniconda3/envs/llm/lib/python3.12/site-packages/triton/language/standard.py":168:4)
#loc193 = loc("/home/ubuntu/miniconda3/envs/llm/lib/python3.12/site-packages/triton/language/standard.py":291:36)
#loc194 = loc("/home/ubuntu/miniconda3/envs/llm/lib/python3.12/site-packages/triton/language/standard.py":291:11)
#loc195 = loc("/home/ubuntu/miniconda3/envs/llm/lib/python3.12/site-packages/triton/language/standard.py":291:4)
#loc197 = loc("/home/ubuntu/miniconda3/envs/llm/lib/python3.12/site-packages/triton/language/standard.py":261:15)
#loc198 = loc("/home/ubuntu/miniconda3/envs/llm/lib/python3.12/site-packages/triton/language/standard.py":261:11)
#loc199 = loc("/home/ubuntu/miniconda3/envs/llm/lib/python3.12/site-packages/triton/language/standard.py":261:4)
#loc225 = loc("q_block_global_idx"(#loc1))
#loc226 = loc("kv_head_idx"(#loc2))
#loc227 = loc("seq_idx"(#loc3))
#loc228 = loc("q_block_start_idx"(#loc4))
#loc229 = loc("q_block_start_idx"(#loc5))
#loc230 = loc("q_block_start_idx"(#loc6))
#loc231 = loc("q_block_start_idx"(#loc7))
#loc232 = loc("q_block_local_idx"(#loc8))
#loc233 = loc("cur_batch_in_all_start_index"(#loc9))
#loc234 = loc("cur_batch_in_all_start_index"(#loc10))
#loc235 = loc("cur_batch_in_all_stop_index"(#loc11))
#loc236 = loc("cur_batch_in_all_stop_index"(#loc12))
#loc237 = loc("cur_batch_in_all_stop_index"(#loc13))
#loc238 = loc("cur_batch_query_len"(#loc14))
#loc239 = loc("offs_m"(#loc19))
#loc240 = loc("offs_d"(#loc20))
#loc241 = loc("offs_t"(#loc21))
#loc242 = loc("query_pos"(#loc22))
#loc243 = loc("query_pos"(#loc23))
#loc244 = loc("query_pos"(#loc24))
#loc245 = loc("query_offset_0"(#loc25))
#loc246 = loc("query_offset_1"(#loc26))
#loc247 = loc("query_offset_1"(#loc27))
#loc248 = loc("query_offset_1"(#loc28))
#loc249 = loc("query_offset"(#loc29))
#loc250 = loc("query_offset"(#loc30))
#loc251 = loc("query_offset"(#loc31))
#loc252 = loc("query_offset"(#loc32))
#loc253 = loc("query_offset"(#loc33))
#loc254 = loc("query_offset"(#loc34))
#loc255 = loc("query_offset"(#loc35))
#loc256 = loc("dim_mask"(#loc36))
#loc257 = loc("dim_mask"(#loc37))
#loc258 = loc("dim_mask"(#loc38))
#loc259 = loc("query_mask_0"(#loc39))
#loc260 = loc("query_mask_0"(#loc40))
#loc261 = loc("query_mask_0"(#loc41))
#loc262 = loc("query_mask_1"(#loc42))
#loc263 = loc("query_mask_1"(#loc43))
#loc264 = loc("query_mask_1"(#loc44))
#loc265 = loc("Q"(#loc45))
#loc266 = loc("Q"(#loc46))
#loc267 = loc("Q"(#loc47))
#loc268 = loc("Q"(#loc48))
#loc269 = loc("Q"(#loc49))
#loc270 = loc("Q"(#loc50))
#loc271 = loc("Q"(#loc51))
#loc272 = loc("block_table_offset"(#loc52))
#loc273 = loc("M"(#loc53))
#loc274 = loc("L"(#loc54))
#loc275 = loc("acc"(#loc55))
#loc276 = loc("seq_len"(#loc56))
#loc277 = loc("seq_len"(#loc57))
#loc278 = loc("context_len"(#loc58))
#loc279 = loc("max_seq_prefix_len"(#loc59))
#loc280 = loc("max_seq_prefix_len"(#loc60))
#loc281 = loc("max_seq_prefix_len"(#loc61))
#loc282 = loc("max_seq_prefix_len"(#loc62))
#loc283 = loc("max_seq_prefix_len"(#loc63))
#loc284 = loc("num_tiles"(#loc64))
#loc285 = loc("tile_start"(#loc65))
#loc286 = loc("M"(#loc66))
#loc287 = loc("seq_offset"(#loc67))
#loc288 = loc("seq_offset"(#loc68))
#loc289 = loc("tile_mask"(#loc69))
#loc290 = loc("physical_block_idx"(#loc70))
#loc291 = loc("physical_block_idx"(#loc71))
#loc292 = loc("physical_block_idx"(#loc72))
#loc293 = loc("physical_block_idx"(#loc73))
#loc294 = loc("physical_block_idx"(#loc74))
#loc295 = loc("v_offset"(#loc75))
#loc296 = loc("v_offset"(#loc76))
#loc297 = loc("v_offset"(#loc77))
#loc298 = loc("v_offset"(#loc78))
#loc299 = loc("v_offset"(#loc79))
#loc300 = loc("v_offset"(#loc80))
#loc301 = loc("v_offset"(#loc81))
#loc302 = loc("v_offset"(#loc82))
#loc303 = loc("v_offset"(#loc83))
#loc304 = loc("v_offset"(#loc84))
#loc305 = loc("v_offset"(#loc85))
#loc306 = loc("k_offset"(#loc86))
#loc307 = loc("k_offset"(#loc87))
#loc308 = loc("k_offset"(#loc88))
#loc309 = loc("k_offset"(#loc89))
#loc310 = loc("k_offset"(#loc90))
#loc311 = loc("k_offset"(#loc91))
#loc312 = loc("k_offset"(#loc92))
#loc313 = loc("k_offset"(#loc93))
#loc314 = loc("k_offset"(#loc94))
#loc315 = loc("k_offset"(#loc95))
#loc316 = loc("k_offset"(#loc96))
#loc317 = loc("K_load"(#loc97))
#loc318 = loc("K_load"(#loc98))
#loc319 = loc("K_load"(#loc99))
#loc320 = loc("K_load"(#loc100))
#loc321 = loc("K_load"(#loc101))
#loc322 = loc("V_load"(#loc102))
#loc323 = loc("V_load"(#loc103))
#loc324 = loc("V_load"(#loc104))
#loc325 = loc("V_load"(#loc105))
#loc326 = loc("V_load"(#loc106))
#loc327 = loc("query_abs_pos"(#loc107))
#loc328 = loc("query_abs_pos"(#loc108))
#loc329 = loc("seq_mask"(#loc109))
#loc330 = loc("seq_mask"(#loc110))
#loc331 = loc("S"(#loc111))
#loc332 = loc("S"(#loc112))
#loc333 = loc("S"(#loc113))
#loc334 = loc("S"(#loc114))
#loc335 = loc("S"(#loc115))
#loc336 = loc("S"(#loc116))
#loc337 = loc("S"(#loc117))
#loc338 = loc("S"(#loc118))
#loc339 = loc("S"(#loc119))
#loc340 = loc("m_j"(#loc120))
#loc341 = loc("m_j"(#loc121))
#loc342 = loc("m_j"(#loc122))
#loc343 = loc("m_j"(#loc123))
#loc344 = loc("P"(#loc124))
#loc345 = loc("P"(#loc125))
#loc346 = loc("P"(#loc126))
#loc347 = loc("l_j"(#loc127))
#loc348 = loc("alpha"(#loc128))
#loc349 = loc("alpha"(#loc129))
#loc350 = loc("acc"(#loc130))
#loc351 = loc("acc"(#loc131))
#loc352 = loc("L"(#loc132))
#loc353 = loc("L"(#loc133))
#loc354 = loc("acc"(#loc134))
#loc355 = loc("acc"(#loc135))
#loc356 = loc("acc"(#loc136))
#loc357 = loc("acc"(#loc138))
#loc358 = loc("acc"(#loc139))
#loc359 = loc("output_offset"(#loc140))
#loc360 = loc("output_offset"(#loc141))
#loc361 = loc("output_offset"(#loc142))
#loc362 = loc("output_offset"(#loc143))
#loc363 = loc("output_offset"(#loc144))
#loc364 = loc("output_offset"(#loc145))
#loc365 = loc("output_offset"(#loc146))
#loc369 = loc("left"(#loc156))
#loc370 = loc("left"(#loc157))
#loc373 = loc("mid"(#loc161))
#loc374 = loc("mid"(#loc162))
#loc375 = loc("val"(#loc163))
#loc376 = loc("val"(#loc164))
#loc377 = loc("mid_val"(#loc165))
#loc378 = loc("mid_val"(#loc166))
#loc379 = loc("left"(#loc169))
#loc387 = loc("L"(#loc286))
#loc389 = loc("left"(#loc369))
#loc390 = loc("right"(#loc370))
#loc391 = loc("right"(#loc374))
#loc392 = loc("left"(#loc379))
#loc393 = loc("acc"(#loc387))
