#loc = loc("/home/ubuntu/miniconda3/envs/llm/lib/python3.12/site-packages/vllm/v1/attention/ops/triton_unified_attention.py":405:0)
#loc1 = loc(unknown)
#loc6 = loc("/home/ubuntu/miniconda3/envs/llm/lib/python3.12/site-packages/vllm/v1/attention/ops/triton_unified_attention.py":460:68)
#loc8 = loc("left")
#loc9 = loc("right")
#loc128 = loc("/home/ubuntu/miniconda3/envs/llm/lib/python3.12/site-packages/vllm/v1/attention/ops/triton_unified_attention.py":708:35)
#loc137 = loc("/home/ubuntu/miniconda3/envs/llm/lib/python3.12/site-packages/vllm/v1/attention/ops/triton_unified_attention.py":718:21)
#loc167 = loc("segm_output_ptr"(#loc))
#loc168 = loc("segm_max_ptr"(#loc))
#loc169 = loc("segm_expsum_ptr"(#loc))
#loc170 = loc("query_ptr"(#loc))
#loc171 = loc("key_cache_ptr"(#loc))
#loc172 = loc("value_cache_ptr"(#loc))
#loc173 = loc("block_tables_ptr"(#loc))
#loc174 = loc("seq_lens_ptr"(#loc))
#loc175 = loc("scale"(#loc))
#loc176 = loc("k_scale"(#loc))
#loc177 = loc("v_scale"(#loc))
#loc178 = loc("softcap"(#loc))
#loc179 = loc("block_table_stride"(#loc))
#loc180 = loc("query_stride_0"(#loc))
#loc181 = loc("query_stride_1"(#loc))
#loc182 = loc("qq_bias_stride_0"(#loc))
#loc183 = loc("stride_k_cache_0"(#loc))
#loc184 = loc("stride_k_cache_1"(#loc))
#loc185 = loc("stride_k_cache_2"(#loc))
#loc186 = loc("stride_v_cache_0"(#loc))
#loc187 = loc("stride_v_cache_1"(#loc))
#loc188 = loc("stride_v_cache_2"(#loc))
#loc189 = loc("query_start_len_ptr"(#loc))
#loc190 = loc("num_seqs"(#loc))
#loc195 = loc("seq_idx"(#loc6))
#loc196 = loc("left"(#loc8))
#loc197 = loc("right"(#loc9))
#loc299 = loc("m_j"(#loc128))
#loc306 = loc("l_j"(#loc137))
#loc328 = loc(callsite(#loc196 at #loc195))
#loc329 = loc(callsite(#loc197 at #loc195))
#loc348 = loc(callsite(#loc1 at #loc299))
#loc350 = loc(callsite(#loc1 at #loc306))
module {
  tt.func public @kernel_unified_attention_3d(%segm_output_ptr: !tt.ptr<f32> {tt.divisibility = 16 : i32} loc("segm_output_ptr"(#loc)), %segm_max_ptr: !tt.ptr<f32> {tt.divisibility = 16 : i32} loc("segm_max_ptr"(#loc)), %segm_expsum_ptr: !tt.ptr<f32> {tt.divisibility = 16 : i32} loc("segm_expsum_ptr"(#loc)), %query_ptr: !tt.ptr<bf16> {tt.divisibility = 16 : i32} loc("query_ptr"(#loc)), %key_cache_ptr: !tt.ptr<bf16> {tt.divisibility = 16 : i32} loc("key_cache_ptr"(#loc)), %value_cache_ptr: !tt.ptr<bf16> {tt.divisibility = 16 : i32} loc("value_cache_ptr"(#loc)), %block_tables_ptr: !tt.ptr<i32> {tt.divisibility = 16 : i32} loc("block_tables_ptr"(#loc)), %seq_lens_ptr: !tt.ptr<i32> {tt.divisibility = 16 : i32} loc("seq_lens_ptr"(#loc)), %scale: f32 loc("scale"(#loc)), %k_scale: !tt.ptr<f32> {tt.divisibility = 16 : i32} loc("k_scale"(#loc)), %v_scale: !tt.ptr<f32> {tt.divisibility = 16 : i32} loc("v_scale"(#loc)), %softcap: i32 {tt.divisibility = 16 : i32} loc("softcap"(#loc)), %block_table_stride: i64 loc("block_table_stride"(#loc)), %query_stride_0: i64 {tt.divisibility = 16 : i32} loc("query_stride_0"(#loc)), %query_stride_1: i64 {tt.divisibility = 16 : i32} loc("query_stride_1"(#loc)), %qq_bias_stride_0: i64 {tt.divisibility = 16 : i32} loc("qq_bias_stride_0"(#loc)), %stride_k_cache_0: i64 {tt.divisibility = 16 : i32} loc("stride_k_cache_0"(#loc)), %stride_k_cache_1: i64 {tt.divisibility = 16 : i32} loc("stride_k_cache_1"(#loc)), %stride_k_cache_2: i64 {tt.divisibility = 16 : i32} loc("stride_k_cache_2"(#loc)), %stride_v_cache_0: i64 {tt.divisibility = 16 : i32} loc("stride_v_cache_0"(#loc)), %stride_v_cache_1: i64 {tt.divisibility = 16 : i32} loc("stride_v_cache_1"(#loc)), %stride_v_cache_2: i64 {tt.divisibility = 16 : i32} loc("stride_v_cache_2"(#loc)), %query_start_len_ptr: !tt.ptr<i32> {tt.divisibility = 16 : i32} loc("query_start_len_ptr"(#loc)), %num_seqs: i32 loc("num_seqs"(#loc))) attributes {noinline = false} {
    %c255_i32 = arith.constant 255 : i32 loc(#loc1)
    %c15_i32 = arith.constant 15 : i32 loc(#loc1)
    %cst = arith.constant dense<0.000000e+00> : tensor<128x16xbf16> loc(#loc1)
    %cst_0 = arith.constant dense<0.000000e+00> : tensor<16x128xbf16> loc(#loc1)
    %c256_i32 = arith.constant 256 : i32 loc(#loc1)
    %cst_1 = arith.constant dense<256> : tensor<16xi64> loc(#loc1)
    %cst_2 = arith.constant dense<2048> : tensor<16x1xi32> loc(#loc1)
    %cst_3 = arith.constant dense<32768> : tensor<16x1xi64> loc(#loc1)
    %cst_4 = arith.constant dense<0.000000e+00> : tensor<16xf32> loc(#loc1)
    %cst_5 = arith.constant dense<0xFF800000> : tensor<16x16xf32> loc(#loc1)
    %cst_6 = arith.constant dense<0.000000e+00> : tensor<16x16xf32> loc(#loc1)
    %cst_7 = arith.constant dense<1.000000e+00> : tensor<16xf32> loc(#loc1)
    %cst_8 = arith.constant dense<0xFF800000> : tensor<16xf32> loc(#loc1)
    %cst_9 = arith.constant dense<0.000000e+00> : tensor<16x128xf32> loc(#loc1)
    %cst_10 = arith.constant dense<16> : tensor<16xi32> loc(#loc1)
    %cst_11 = arith.constant dense<0> : tensor<16xi32> loc(#loc1)
    %cst_12 = arith.constant dense<1> : tensor<16xi32> loc(#loc1)
    %cst_13 = arith.constant dense<0> : tensor<128xi32> loc(#loc1)
    %cst_14 = arith.constant dense<1> : tensor<128xi32> loc(#loc1)
    %c0_i32 = arith.constant 0 : i32 loc(#loc1)
    %cst_15 = arith.constant dense<128> : tensor<128xi32> loc(#loc1)
    %c128_i32 = arith.constant 128 : i32 loc(#loc1)
    %cst_16 = arith.constant dense<2> : tensor<16xi32> loc(#loc1)
    %c2_i32 = arith.constant 2 : i32 loc(#loc1)
    %c16_i32 = arith.constant 16 : i32 loc(#loc1)
    %c1_i32 = arith.constant 1 : i32 loc(#loc1)
    %c8_i32 = arith.constant 8 : i32 loc(#loc1)
    %q_block_global_idx = tt.get_program_id x : i32 loc(#loc191)
    %kv_head_idx = tt.get_program_id y : i32 loc(#loc192)
    %segm_idx = tt.get_program_id z : i32 loc(#loc193)
    %right:2 = scf.while (%left = %c0_i32, %right_79 = %num_seqs) : (i32, i32) -> (i32, i32) {
      %seq_idx_80 = arith.cmpi slt, %left, %right_79 : i32 loc(#loc327)
      scf.condition(%seq_idx_80) %left, %right_79 : i32, i32 loc(#loc327)
    } do {
    ^bb0(%left: i32 loc(callsite(#loc196 at #loc195)), %right_79: i32 loc(callsite(#loc197 at #loc195))):
      %mid = arith.addi %left, %right_79 : i32 loc(#loc330)
      %right_80 = arith.divsi %mid, %c2_i32 : i32 loc(#loc352)
      %val = tt.addptr %query_start_len_ptr, %right_80 : !tt.ptr<i32>, i32 loc(#loc332)
      %val_81 = tt.load %val : !tt.ptr<i32> loc(#loc333)
      %mid_val = arith.divsi %val_81, %c8_i32 : i32 loc(#loc334)
      %mid_val_82 = arith.addi %mid_val, %right_80 : i32 loc(#loc335)
      %seq_idx_83 = arith.cmpi sle, %mid_val_82, %q_block_global_idx : i32 loc(#loc336)
      %seq_idx_84 = arith.select %seq_idx_83, %right_79, %right_80 : i32 loc(#loc337)
      %seq_idx_85 = scf.if %seq_idx_83 -> (i32) {
        %left_86 = arith.addi %right_80, %c1_i32 : i32 loc(#loc353)
        scf.yield %left_86 : i32 loc(#loc353)
      } else {
        scf.yield %left : i32 loc(#loc339)
      } loc(#loc337)
      scf.yield %seq_idx_85, %seq_idx_84 : i32, i32 loc(#loc340)
    } loc(#loc351)
    %seq_idx = arith.subi %right#0, %c1_i32 : i32 loc(#loc341)
    %q_block_start_idx = tt.addptr %query_start_len_ptr, %seq_idx : !tt.ptr<i32>, i32 loc(#loc205)
    %q_block_start_idx_17 = tt.load %q_block_start_idx : !tt.ptr<i32> loc(#loc206)
    %q_block_start_idx_18 = arith.divsi %q_block_start_idx_17, %c8_i32 : i32 loc(#loc207)
    %q_block_start_idx_19 = arith.addi %q_block_start_idx_18, %seq_idx : i32 loc(#loc208)
    %q_block_local_idx = arith.subi %q_block_global_idx, %q_block_start_idx_19 : i32 loc(#loc209)
    %cur_batch_in_all_stop_index = tt.addptr %q_block_start_idx, %c1_i32 : !tt.ptr<i32>, i32 loc(#loc210)
    %cur_batch_in_all_stop_index_20 = tt.load %cur_batch_in_all_stop_index : !tt.ptr<i32> loc(#loc211)
    %cur_batch_query_len = arith.subi %cur_batch_in_all_stop_index_20, %q_block_start_idx_17 : i32 loc(#loc212)
    %0 = arith.muli %q_block_local_idx, %c8_i32 : i32 loc(#loc29)
    %1 = arith.cmpi sge, %0, %cur_batch_query_len : i32 loc(#loc30)
    cf.cond_br %1, ^bb1, ^bb2 loc(#loc30)
  ^bb1:  // 2 preds: ^bb0, ^bb2
    tt.return loc(#loc31)
  ^bb2:  // pred: ^bb0
    %seq_len = tt.addptr %seq_lens_ptr, %seq_idx : !tt.ptr<i32>, i32 loc(#loc213)
    %seq_len_21 = tt.load %seq_len : !tt.ptr<i32> loc(#loc214)
    %tiles_per_segment = arith.addi %seq_len_21, %c255_i32 : i32 loc(#loc342)
    %tiles_per_segment_22 = arith.divsi %tiles_per_segment, %c256_i32 : i32 loc(#loc343)
    %2 = arith.muli %segm_idx, %tiles_per_segment_22 : i32 loc(#loc37)
    %3 = arith.muli %2, %c16_i32 : i32 loc(#loc38)
    %4 = arith.cmpi sge, %3, %seq_len_21 : i32 loc(#loc39)
    cf.cond_br %4, ^bb1, ^bb3 loc(#loc39)
  ^bb3:  // pred: ^bb2
    %offs_m = tt.make_range {end = 16 : i32, start = 0 : i32} : tensor<16xi32> loc(#loc216)
    %offs_d = tt.make_range {end = 128 : i32, start = 0 : i32} : tensor<128xi32> loc(#loc217)
    %query_pos = arith.divsi %offs_m, %cst_16 : tensor<16xi32> loc(#loc218)
    %query_pos_23 = tt.splat %0 : i32 -> tensor<16xi32> loc(#loc219)
    %query_pos_24 = arith.addi %query_pos_23, %query_pos : tensor<16xi32> loc(#loc219)
    %query_offset_0 = tt.splat %q_block_start_idx_17 : i32 -> tensor<16xi32> loc(#loc220)
    %query_offset_0_25 = arith.addi %query_offset_0, %query_pos_24 : tensor<16xi32> loc(#loc220)
    %query_offset_1 = arith.muli %kv_head_idx, %c2_i32 : i32 loc(#loc221)
    %query_offset_1_26 = arith.remsi %offs_m, %cst_16 : tensor<16xi32> loc(#loc222)
    %query_offset_1_27 = tt.splat %query_offset_1 : i32 -> tensor<16xi32> loc(#loc223)
    %query_offset_1_28 = arith.addi %query_offset_1_27, %query_offset_1_26 : tensor<16xi32> loc(#loc223)
    %query_offset = tt.expand_dims %query_offset_0_25 {axis = 1 : i32} : tensor<16xi32> -> tensor<16x1xi32> loc(#loc224)
    %query_offset_29 = arith.extsi %query_offset : tensor<16x1xi32> to tensor<16x1xi64> loc(#loc225)
    %query_offset_30 = tt.splat %query_stride_0 : i64 -> tensor<16x1xi64> loc(#loc225)
    %query_offset_31 = arith.muli %query_offset_29, %query_offset_30 : tensor<16x1xi64> loc(#loc225)
    %query_offset_32 = tt.expand_dims %query_offset_1_28 {axis = 1 : i32} : tensor<16xi32> -> tensor<16x1xi32> loc(#loc226)
    %query_offset_33 = arith.extsi %query_offset_32 : tensor<16x1xi32> to tensor<16x1xi64> loc(#loc227)
    %query_offset_34 = tt.splat %query_stride_1 : i64 -> tensor<16x1xi64> loc(#loc227)
    %query_offset_35 = arith.muli %query_offset_33, %query_offset_34 : tensor<16x1xi64> loc(#loc227)
    %query_offset_36 = arith.addi %query_offset_31, %query_offset_35 : tensor<16x1xi64> loc(#loc228)
    %query_offset_37 = tt.expand_dims %offs_d {axis = 0 : i32} : tensor<128xi32> -> tensor<1x128xi32> loc(#loc229)
    %query_offset_38 = arith.extsi %query_offset_37 : tensor<1x128xi32> to tensor<1x128xi64> loc(#loc230)
    %query_offset_39 = tt.broadcast %query_offset_36 : tensor<16x1xi64> -> tensor<16x128xi64> loc(#loc230)
    %query_offset_40 = tt.broadcast %query_offset_38 : tensor<1x128xi64> -> tensor<16x128xi64> loc(#loc230)
    %query_offset_41 = arith.addi %query_offset_39, %query_offset_40 : tensor<16x128xi64> loc(#loc230)
    %dim_mask = arith.cmpi slt, %offs_d, %cst_15 : tensor<128xi32> loc(#loc231)
    %dim_mask_42 = arith.select %dim_mask, %cst_14, %cst_13 : tensor<128xi1>, tensor<128xi32> loc(#loc232)
    %dim_mask_43 = arith.cmpi ne, %dim_mask_42, %cst_13 : tensor<128xi32> loc(#loc233)
    %query_mask_0 = tt.splat %cur_batch_query_len : i32 -> tensor<16xi32> loc(#loc234)
    %query_mask_0_44 = arith.cmpi slt, %query_pos_24, %query_mask_0 : tensor<16xi32> loc(#loc234)
    %query_mask_0_45 = arith.select %query_mask_0_44, %cst_12, %cst_11 : tensor<16xi1>, tensor<16xi32> loc(#loc235)
    %query_mask_0_46 = arith.cmpi ne, %query_mask_0_45, %cst_11 : tensor<16xi32> loc(#loc236)
    %query_mask_1 = arith.cmpi slt, %query_offset_1_28, %cst_10 : tensor<16xi32> loc(#loc237)
    %query_mask_1_47 = arith.select %query_mask_1, %cst_12, %cst_11 : tensor<16xi1>, tensor<16xi32> loc(#loc238)
    %query_mask_1_48 = arith.cmpi ne, %query_mask_1_47, %cst_11 : tensor<16xi32> loc(#loc239)
    %Q = tt.expand_dims %dim_mask_43 {axis = 0 : i32} : tensor<128xi1> -> tensor<1x128xi1> loc(#loc240)
    %Q_49 = tt.expand_dims %query_mask_0_46 {axis = 1 : i32} : tensor<16xi1> -> tensor<16x1xi1> loc(#loc241)
    %Q_50 = tt.broadcast %Q : tensor<1x128xi1> -> tensor<16x128xi1> loc(#loc242)
    %Q_51 = tt.broadcast %Q_49 : tensor<16x1xi1> -> tensor<16x128xi1> loc(#loc242)
    %Q_52 = arith.andi %Q_50, %Q_51 : tensor<16x128xi1> loc(#loc242)
    %Q_53 = tt.expand_dims %query_mask_1_48 {axis = 1 : i32} : tensor<16xi1> -> tensor<16x1xi1> loc(#loc243)
    %Q_54 = tt.broadcast %Q_53 : tensor<16x1xi1> -> tensor<16x128xi1> loc(#loc244)
    %Q_55 = arith.andi %Q_52, %Q_54 : tensor<16x128xi1> loc(#loc244)
    %Q_56 = tt.splat %query_ptr : !tt.ptr<bf16> -> tensor<16x128x!tt.ptr<bf16>> loc(#loc245)
    %Q_57 = tt.addptr %Q_56, %query_offset_41 : tensor<16x128x!tt.ptr<bf16>>, tensor<16x128xi64> loc(#loc245)
    %Q_58 = tt.load %Q_57, %Q_55, %cst_0 : tensor<16x128x!tt.ptr<bf16>> loc(#loc246)
    %block_table_offset = arith.extsi %seq_idx : i32 to i64 loc(#loc247)
    %block_table_offset_59 = arith.muli %block_table_offset, %block_table_stride : i64 loc(#loc247)
    %context_len = arith.subi %seq_len_21, %cur_batch_query_len : i32 loc(#loc248)
    %max_seq_prefix_len = arith.addi %context_len, %0 : i32 loc(#loc249)
    %max_seq_prefix_len_60 = arith.addi %max_seq_prefix_len, %c8_i32 : i32 loc(#loc250)
    %max_seq_prefix_len_61 = arith.minsi %max_seq_prefix_len_60, %seq_len_21 : i32 loc(#loc251)
    %num_tiles = arith.addi %max_seq_prefix_len_61, %c15_i32 : i32 loc(#loc344)
    %num_tiles_62 = arith.divsi %num_tiles, %c16_i32 : i32 loc(#loc345)
    %5 = arith.maxsi %2, %c0_i32 : i32 loc(#loc77)
    %6 = arith.addi %segm_idx, %c1_i32 : i32 loc(#loc78)
    %7 = arith.muli %6, %tiles_per_segment_22 : i32 loc(#loc79)
    %8 = arith.minsi %7, %num_tiles_62 : i32 loc(#loc80)
    %acc:3 = scf.for %j = %5 to %8 step %c1_i32 iter_args(%M = %cst_8, %L = %cst_7, %acc_79 = %cst_9) -> (tensor<16xf32>, tensor<16xf32>, tensor<16x128xf32>)  : i32 {
      %seq_offset = arith.muli %j, %c16_i32 : i32 loc(#loc254)
      %seq_offset_80 = tt.splat %seq_offset : i32 -> tensor<16xi32> loc(#loc255)
      %seq_offset_81 = arith.addi %seq_offset_80, %offs_m : tensor<16xi32> loc(#loc255)
      %tile_mask = tt.splat %max_seq_prefix_len_61 : i32 -> tensor<16xi32> loc(#loc256)
      %tile_mask_82 = arith.cmpi slt, %seq_offset_81, %tile_mask : tensor<16xi32> loc(#loc256)
      %physical_block_idx = tt.addptr %block_tables_ptr, %block_table_offset_59 : !tt.ptr<i32>, i64 loc(#loc257)
      %physical_block_idx_83 = arith.divsi %seq_offset_81, %cst_10 : tensor<16xi32> loc(#loc258)
      %physical_block_idx_84 = tt.splat %physical_block_idx : !tt.ptr<i32> -> tensor<16x!tt.ptr<i32>> loc(#loc259)
      %physical_block_idx_85 = tt.addptr %physical_block_idx_84, %physical_block_idx_83 : tensor<16x!tt.ptr<i32>>, tensor<16xi32> loc(#loc259)
      %physical_block_idx_86 = tt.load %physical_block_idx_85 : tensor<16x!tt.ptr<i32>> loc(#loc260)
      %physical_block_idx_87 = arith.extsi %physical_block_idx_86 : tensor<16xi32> to tensor<16xi64> loc(#loc261)
      %v_offset = tt.expand_dims %physical_block_idx_87 {axis = 1 : i32} : tensor<16xi64> -> tensor<16x1xi64> loc(#loc262)
      %v_offset_88 = tt.splat %stride_v_cache_0 : i64 -> tensor<16x1xi64> loc(#loc263)
      %v_offset_89 = arith.muli %v_offset, %v_offset_88 : tensor<16x1xi64> loc(#loc263)
      %v_offset_90 = arith.extsi %kv_head_idx : i32 to i64 loc(#loc264)
      %v_offset_91 = arith.muli %v_offset_90, %stride_v_cache_2 : i64 loc(#loc264)
      %v_offset_92 = tt.splat %v_offset_91 : i64 -> tensor<16x1xi64> loc(#loc265)
      %v_offset_93 = arith.addi %v_offset_89, %v_offset_92 : tensor<16x1xi64> loc(#loc265)
      %v_offset_94 = tt.broadcast %v_offset_93 : tensor<16x1xi64> -> tensor<16x128xi64> loc(#loc266)
      %v_offset_95 = arith.addi %v_offset_94, %query_offset_40 : tensor<16x128xi64> loc(#loc266)
      %v_offset_96 = arith.remsi %seq_offset_81, %cst_10 : tensor<16xi32> loc(#loc267)
      %v_offset_97 = tt.expand_dims %v_offset_96 {axis = 1 : i32} : tensor<16xi32> -> tensor<16x1xi32> loc(#loc268)
      %v_offset_98 = arith.extsi %v_offset_97 : tensor<16x1xi32> to tensor<16x1xi64> loc(#loc269)
      %v_offset_99 = tt.splat %stride_v_cache_1 : i64 -> tensor<16x1xi64> loc(#loc269)
      %v_offset_100 = arith.muli %v_offset_98, %v_offset_99 : tensor<16x1xi64> loc(#loc269)
      %v_offset_101 = tt.broadcast %v_offset_100 : tensor<16x1xi64> -> tensor<16x128xi64> loc(#loc270)
      %v_offset_102 = arith.addi %v_offset_95, %v_offset_101 : tensor<16x128xi64> loc(#loc270)
      %k_offset = tt.expand_dims %physical_block_idx_87 {axis = 0 : i32} : tensor<16xi64> -> tensor<1x16xi64> loc(#loc271)
      %k_offset_103 = tt.splat %stride_k_cache_0 : i64 -> tensor<1x16xi64> loc(#loc272)
      %k_offset_104 = arith.muli %k_offset, %k_offset_103 : tensor<1x16xi64> loc(#loc272)
      %k_offset_105 = arith.muli %v_offset_90, %stride_k_cache_2 : i64 loc(#loc273)
      %k_offset_106 = tt.splat %k_offset_105 : i64 -> tensor<1x16xi64> loc(#loc274)
      %k_offset_107 = arith.addi %k_offset_104, %k_offset_106 : tensor<1x16xi64> loc(#loc274)
      %k_offset_108 = tt.expand_dims %offs_d {axis = 1 : i32} : tensor<128xi32> -> tensor<128x1xi32> loc(#loc275)
      %k_offset_109 = arith.extsi %k_offset_108 : tensor<128x1xi32> to tensor<128x1xi64> loc(#loc276)
      %k_offset_110 = tt.broadcast %k_offset_107 : tensor<1x16xi64> -> tensor<128x16xi64> loc(#loc276)
      %k_offset_111 = tt.broadcast %k_offset_109 : tensor<128x1xi64> -> tensor<128x16xi64> loc(#loc276)
      %k_offset_112 = arith.addi %k_offset_110, %k_offset_111 : tensor<128x16xi64> loc(#loc276)
      %k_offset_113 = tt.expand_dims %v_offset_96 {axis = 0 : i32} : tensor<16xi32> -> tensor<1x16xi32> loc(#loc277)
      %k_offset_114 = arith.extsi %k_offset_113 : tensor<1x16xi32> to tensor<1x16xi64> loc(#loc278)
      %k_offset_115 = tt.splat %stride_k_cache_1 : i64 -> tensor<1x16xi64> loc(#loc278)
      %k_offset_116 = arith.muli %k_offset_114, %k_offset_115 : tensor<1x16xi64> loc(#loc278)
      %k_offset_117 = tt.broadcast %k_offset_116 : tensor<1x16xi64> -> tensor<128x16xi64> loc(#loc279)
      %k_offset_118 = arith.addi %k_offset_112, %k_offset_117 : tensor<128x16xi64> loc(#loc279)
      %K_load = tt.expand_dims %dim_mask_43 {axis = 1 : i32} : tensor<128xi1> -> tensor<128x1xi1> loc(#loc280)
      %K_load_119 = tt.expand_dims %tile_mask_82 {axis = 0 : i32} : tensor<16xi1> -> tensor<1x16xi1> loc(#loc281)
      %K_load_120 = tt.broadcast %K_load : tensor<128x1xi1> -> tensor<128x16xi1> loc(#loc282)
      %K_load_121 = tt.broadcast %K_load_119 : tensor<1x16xi1> -> tensor<128x16xi1> loc(#loc282)
      %K_load_122 = arith.andi %K_load_120, %K_load_121 : tensor<128x16xi1> loc(#loc282)
      %K_load_123 = tt.splat %key_cache_ptr : !tt.ptr<bf16> -> tensor<128x16x!tt.ptr<bf16>> loc(#loc283)
      %K_load_124 = tt.addptr %K_load_123, %k_offset_118 : tensor<128x16x!tt.ptr<bf16>>, tensor<128x16xi64> loc(#loc283)
      %K_load_125 = tt.load %K_load_124, %K_load_122, %cst : tensor<128x16x!tt.ptr<bf16>> loc(#loc284)
      %V_load = tt.expand_dims %tile_mask_82 {axis = 1 : i32} : tensor<16xi1> -> tensor<16x1xi1> loc(#loc285)
      %V_load_126 = tt.broadcast %V_load : tensor<16x1xi1> -> tensor<16x128xi1> loc(#loc286)
      %V_load_127 = arith.andi %Q_50, %V_load_126 : tensor<16x128xi1> loc(#loc286)
      %V_load_128 = tt.splat %value_cache_ptr : !tt.ptr<bf16> -> tensor<16x128x!tt.ptr<bf16>> loc(#loc287)
      %V_load_129 = tt.addptr %V_load_128, %v_offset_102 : tensor<16x128x!tt.ptr<bf16>>, tensor<16x128xi64> loc(#loc287)
      %V_load_130 = tt.load %V_load_129, %V_load_127, %cst_0 : tensor<16x128x!tt.ptr<bf16>> loc(#loc288)
      %query_abs_pos = tt.expand_dims %query_pos_24 {axis = 1 : i32} : tensor<16xi32> -> tensor<16x1xi32> loc(#loc289)
      %query_abs_pos_131 = tt.splat %context_len : i32 -> tensor<16x1xi32> loc(#loc290)
      %query_abs_pos_132 = arith.addi %query_abs_pos_131, %query_abs_pos : tensor<16x1xi32> loc(#loc290)
      %seq_mask = tt.expand_dims %seq_offset_81 {axis = 0 : i32} : tensor<16xi32> -> tensor<1x16xi32> loc(#loc291)
      %seq_mask_133 = tt.broadcast %seq_mask : tensor<1x16xi32> -> tensor<16x16xi32> loc(#loc292)
      %seq_mask_134 = tt.broadcast %query_abs_pos_132 : tensor<16x1xi32> -> tensor<16x16xi32> loc(#loc292)
      %seq_mask_135 = arith.cmpi sle, %seq_mask_133, %seq_mask_134 : tensor<16x16xi32> loc(#loc292)
      %S = tt.dot %Q_58, %K_load_125, %cst_6, inputPrecision = tf32 : tensor<16x128xbf16> * tensor<128x16xbf16> -> tensor<16x16xf32> loc(#loc293)
      %S_136 = tt.splat %scale : f32 -> tensor<16x16xf32> loc(#loc294)
      %S_137 = arith.mulf %S_136, %S : tensor<16x16xf32> loc(#loc294)
      %S_138 = arith.addf %S_137, %cst_6 : tensor<16x16xf32> loc(#loc295)
      %S_139 = arith.andi %Q_53, %Q_49 : tensor<16x1xi1> loc(#loc296)
      %S_140 = tt.broadcast %S_139 : tensor<16x1xi1> -> tensor<16x16xi1> loc(#loc297)
      %S_141 = arith.andi %S_140, %seq_mask_135 : tensor<16x16xi1> loc(#loc297)
      %S_142 = arith.select %S_141, %S_138, %cst_5 : tensor<16x16xi1>, tensor<16x16xf32> loc(#loc298)
      %m_j = "tt.reduce"(%S_142) <{axis = 1 : i32}> ({
      ^bb0(%m_j_157: f32 loc(callsite(#loc1 at #loc299)), %m_j_158: f32 loc(callsite(#loc1 at #loc299))):
        %m_j_159 = arith.maxnumf %m_j_157, %m_j_158 : f32 loc(#loc355)
        tt.reduce.return %m_j_159 : f32 loc(#loc347)
      }) : (tensor<16x16xf32>) -> tensor<16xf32> loc(#loc347)
      %m_j_143 = arith.maxnumf %M, %m_j : tensor<16xf32> loc(#loc300)
      %m_j_144 = arith.cmpf ogt, %m_j_143, %cst_8 : tensor<16xf32> loc(#loc301)
      %m_j_145 = arith.select %m_j_144, %m_j_143, %cst_4 : tensor<16xi1>, tensor<16xf32> loc(#loc302)
      %P = tt.expand_dims %m_j_145 {axis = 1 : i32} : tensor<16xf32> -> tensor<16x1xf32> loc(#loc303)
      %P_146 = tt.broadcast %P : tensor<16x1xf32> -> tensor<16x16xf32> loc(#loc304)
      %P_147 = arith.subf %S_142, %P_146 : tensor<16x16xf32> loc(#loc304)
      %P_148 = math.exp %P_147 : tensor<16x16xf32> loc(#loc305)
      %l_j = "tt.reduce"(%P_148) <{axis = 1 : i32}> ({
      ^bb0(%l_j_157: f32 loc(callsite(#loc1 at #loc306)), %l_j_158: f32 loc(callsite(#loc1 at #loc306))):
        %l_j_159 = arith.addf %l_j_157, %l_j_158 : f32 loc(#loc356)
        tt.reduce.return %l_j_159 : f32 loc(#loc349)
      }) : (tensor<16x16xf32>) -> tensor<16xf32> loc(#loc349)
      %alpha = arith.subf %M, %m_j_145 : tensor<16xf32> loc(#loc307)
      %alpha_149 = math.exp %alpha : tensor<16xf32> loc(#loc308)
      %acc_150 = tt.expand_dims %alpha_149 {axis = 1 : i32} : tensor<16xf32> -> tensor<16x1xf32> loc(#loc309)
      %acc_151 = tt.broadcast %acc_150 : tensor<16x1xf32> -> tensor<16x128xf32> loc(#loc310)
      %acc_152 = arith.mulf %acc_79, %acc_151 : tensor<16x128xf32> loc(#loc310)
      %L_153 = arith.mulf %L, %alpha_149 : tensor<16xf32> loc(#loc311)
      %L_154 = arith.addf %L_153, %l_j : tensor<16xf32> loc(#loc312)
      %acc_155 = arith.truncf %P_148 : tensor<16x16xf32> to tensor<16x16xbf16> loc(#loc313)
      %acc_156 = tt.dot %acc_155, %V_load_130, %acc_152, inputPrecision = tf32 : tensor<16x16xbf16> * tensor<16x128xbf16> -> tensor<16x128xf32> loc(#loc314)
      scf.yield %m_j_145, %L_154, %acc_156 : tensor<16xf32>, tensor<16xf32>, tensor<16x128xf32> loc(#loc147)
    } loc(#loc354)
    %segm_output_offset = arith.muli %query_offset_29, %cst_3 : tensor<16x1xi64> loc(#loc315)
    %segm_output_offset_63 = arith.muli %query_offset_32, %cst_2 : tensor<16x1xi32> loc(#loc316)
    %segm_output_offset_64 = arith.extsi %segm_output_offset_63 : tensor<16x1xi32> to tensor<16x1xi64> loc(#loc317)
    %segm_output_offset_65 = arith.addi %segm_output_offset, %segm_output_offset_64 : tensor<16x1xi64> loc(#loc317)
    %segm_output_offset_66 = arith.muli %segm_idx, %c128_i32 : i32 loc(#loc318)
    %segm_output_offset_67 = arith.extsi %segm_output_offset_66 : i32 to i64 loc(#loc319)
    %segm_output_offset_68 = tt.splat %segm_output_offset_67 : i64 -> tensor<16x1xi64> loc(#loc319)
    %segm_output_offset_69 = arith.addi %segm_output_offset_65, %segm_output_offset_68 : tensor<16x1xi64> loc(#loc319)
    %segm_output_offset_70 = tt.broadcast %segm_output_offset_69 : tensor<16x1xi64> -> tensor<16x128xi64> loc(#loc320)
    %segm_output_offset_71 = arith.addi %segm_output_offset_70, %query_offset_40 : tensor<16x128xi64> loc(#loc320)
    %9 = tt.splat %segm_output_ptr : !tt.ptr<f32> -> tensor<16x128x!tt.ptr<f32>> loc(#loc154)
    %10 = tt.addptr %9, %segm_output_offset_71 : tensor<16x128x!tt.ptr<f32>>, tensor<16x128xi64> loc(#loc154)
    tt.store %10, %acc#2, %Q_55 : tensor<16x128x!tt.ptr<f32>> loc(#loc155)
    %segm_offset = arith.extsi %query_offset_0_25 : tensor<16xi32> to tensor<16xi64> loc(#loc321)
    %segm_offset_72 = arith.muli %segm_offset, %cst_1 : tensor<16xi64> loc(#loc322)
    %segm_offset_73 = arith.muli %query_offset_1_28, %cst_10 : tensor<16xi32> loc(#loc323)
    %segm_offset_74 = arith.extsi %segm_offset_73 : tensor<16xi32> to tensor<16xi64> loc(#loc324)
    %segm_offset_75 = arith.addi %segm_offset_72, %segm_offset_74 : tensor<16xi64> loc(#loc324)
    %segm_offset_76 = arith.extsi %segm_idx : i32 to i64 loc(#loc325)
    %segm_offset_77 = tt.splat %segm_offset_76 : i64 -> tensor<16xi64> loc(#loc325)
    %segm_offset_78 = arith.addi %segm_offset_75, %segm_offset_77 : tensor<16xi64> loc(#loc325)
    %11 = arith.andi %query_mask_0_46, %query_mask_1_48 : tensor<16xi1> loc(#loc161)
    %12 = tt.splat %segm_max_ptr : !tt.ptr<f32> -> tensor<16x!tt.ptr<f32>> loc(#loc162)
    %13 = tt.addptr %12, %segm_offset_78 : tensor<16x!tt.ptr<f32>>, tensor<16xi64> loc(#loc162)
    tt.store %13, %acc#0, %11 : tensor<16x!tt.ptr<f32>> loc(#loc163)
    %14 = tt.splat %segm_expsum_ptr : !tt.ptr<f32> -> tensor<16x!tt.ptr<f32>> loc(#loc164)
    %15 = tt.addptr %14, %segm_offset_78 : tensor<16x!tt.ptr<f32>>, tensor<16xi64> loc(#loc164)
    tt.store %15, %acc#1, %11 : tensor<16x!tt.ptr<f32>> loc(#loc165)
    tt.return loc(#loc166)
  } loc(#loc)
} loc(#loc)
#loc2 = loc("/home/ubuntu/miniconda3/envs/llm/lib/python3.12/site-packages/vllm/v1/attention/ops/triton_unified_attention.py":455:39)
#loc3 = loc("/home/ubuntu/miniconda3/envs/llm/lib/python3.12/site-packages/vllm/v1/attention/ops/triton_unified_attention.py":456:32)
#loc4 = loc("/home/ubuntu/miniconda3/envs/llm/lib/python3.12/site-packages/vllm/v1/attention/ops/triton_unified_attention.py":457:29)
#loc5 = loc("/home/ubuntu/miniconda3/envs/llm/lib/python3.12/site-packages/vllm/v1/attention/ops/triton_unified_attention.py":43:4)
#loc7 = loc("/home/ubuntu/miniconda3/envs/llm/lib/python3.12/site-packages/vllm/v1/attention/ops/triton_unified_attention.py":43:17)
#loc10 = loc("/home/ubuntu/miniconda3/envs/llm/lib/python3.12/site-packages/vllm/v1/attention/ops/triton_unified_attention.py":44:22)
#loc11 = loc("/home/ubuntu/miniconda3/envs/llm/lib/python3.12/site-packages/vllm/v1/attention/ops/triton_unified_attention.py":44:32)
#loc12 = loc("/home/ubuntu/miniconda3/envs/llm/lib/python3.12/site-packages/vllm/v1/attention/ops/triton_unified_attention.py":45:44)
#loc13 = loc("/home/ubuntu/miniconda3/envs/llm/lib/python3.12/site-packages/vllm/v1/attention/ops/triton_unified_attention.py":45:22)
#loc14 = loc("/home/ubuntu/miniconda3/envs/llm/lib/python3.12/site-packages/vllm/v1/attention/ops/triton_unified_attention.py":46:25)
#loc15 = loc("/home/ubuntu/miniconda3/envs/llm/lib/python3.12/site-packages/vllm/v1/attention/ops/triton_unified_attention.py":46:35)
#loc16 = loc("/home/ubuntu/miniconda3/envs/llm/lib/python3.12/site-packages/vllm/v1/attention/ops/triton_unified_attention.py":48:22)
#loc17 = loc("/home/ubuntu/miniconda3/envs/llm/lib/python3.12/site-packages/vllm/v1/attention/ops/triton_unified_attention.py":48:11)
#loc18 = loc("/home/ubuntu/miniconda3/envs/llm/lib/python3.12/site-packages/vllm/v1/attention/ops/triton_unified_attention.py":49:25)
#loc19 = loc("/home/ubuntu/miniconda3/envs/llm/lib/python3.12/site-packages/vllm/v1/attention/ops/triton_unified_attention.py":48:8)
#loc20 = loc("/home/ubuntu/miniconda3/envs/llm/lib/python3.12/site-packages/vllm/v1/attention/ops/triton_unified_attention.py":53:18)
#loc21 = loc("/home/ubuntu/miniconda3/envs/llm/lib/python3.12/site-packages/vllm/v1/attention/ops/triton_unified_attention.py":463:54)
#loc22 = loc("/home/ubuntu/miniconda3/envs/llm/lib/python3.12/site-packages/vllm/v1/attention/ops/triton_unified_attention.py":463:32)
#loc23 = loc("/home/ubuntu/miniconda3/envs/llm/lib/python3.12/site-packages/vllm/v1/attention/ops/triton_unified_attention.py":463:66)
#loc24 = loc("/home/ubuntu/miniconda3/envs/llm/lib/python3.12/site-packages/vllm/v1/attention/ops/triton_unified_attention.py":463:76)
#loc25 = loc("/home/ubuntu/miniconda3/envs/llm/lib/python3.12/site-packages/vllm/v1/attention/ops/triton_unified_attention.py":465:45)
#loc26 = loc("/home/ubuntu/miniconda3/envs/llm/lib/python3.12/site-packages/vllm/v1/attention/ops/triton_unified_attention.py":468:74)
#loc27 = loc("/home/ubuntu/miniconda3/envs/llm/lib/python3.12/site-packages/vllm/v1/attention/ops/triton_unified_attention.py":468:42)
#loc28 = loc("/home/ubuntu/miniconda3/envs/llm/lib/python3.12/site-packages/vllm/v1/attention/ops/triton_unified_attention.py":470:56)
#loc29 = loc("/home/ubuntu/miniconda3/envs/llm/lib/python3.12/site-packages/vllm/v1/attention/ops/triton_unified_attention.py":472:27)
#loc30 = loc("/home/ubuntu/miniconda3/envs/llm/lib/python3.12/site-packages/vllm/v1/attention/ops/triton_unified_attention.py":472:38)
#loc31 = loc("/home/ubuntu/miniconda3/envs/llm/lib/python3.12/site-packages/vllm/v1/attention/ops/triton_unified_attention.py":473:8)
#loc32 = loc("/home/ubuntu/miniconda3/envs/llm/lib/python3.12/site-packages/vllm/v1/attention/ops/triton_unified_attention.py":476:37)
#loc33 = loc("/home/ubuntu/miniconda3/envs/llm/lib/python3.12/site-packages/vllm/v1/attention/ops/triton_unified_attention.py":476:22)
#loc34 = loc("/home/ubuntu/miniconda3/envs/llm/lib/python3.12/site-packages/vllm/v1/attention/ops/triton_unified_attention.py":22:20)
#loc35 = loc("/home/ubuntu/miniconda3/envs/llm/lib/python3.12/site-packages/vllm/v1/attention/ops/triton_unified_attention.py":480:41)
#loc36 = loc("/home/ubuntu/miniconda3/envs/llm/lib/python3.12/site-packages/vllm/v1/attention/ops/triton_unified_attention.py":22:26)
#loc37 = loc("/home/ubuntu/miniconda3/envs/llm/lib/python3.12/site-packages/vllm/v1/attention/ops/triton_unified_attention.py":482:18)
#loc38 = loc("/home/ubuntu/miniconda3/envs/llm/lib/python3.12/site-packages/vllm/v1/attention/ops/triton_unified_attention.py":482:38)
#loc39 = loc("/home/ubuntu/miniconda3/envs/llm/lib/python3.12/site-packages/vllm/v1/attention/ops/triton_unified_attention.py":482:51)
#loc40 = loc("/home/ubuntu/miniconda3/envs/llm/lib/python3.12/site-packages/vllm/v1/attention/ops/triton_unified_attention.py":485:26)
#loc41 = loc("/home/ubuntu/miniconda3/envs/llm/lib/python3.12/site-packages/vllm/v1/attention/ops/triton_unified_attention.py":486:26)
#loc42 = loc("/home/ubuntu/miniconda3/envs/llm/lib/python3.12/site-packages/vllm/v1/attention/ops/triton_unified_attention.py":488:56)
#loc43 = loc("/home/ubuntu/miniconda3/envs/llm/lib/python3.12/site-packages/vllm/v1/attention/ops/triton_unified_attention.py":488:46)
#loc44 = loc("/home/ubuntu/miniconda3/envs/llm/lib/python3.12/site-packages/vllm/v1/attention/ops/triton_unified_attention.py":490:52)
#loc45 = loc("/home/ubuntu/miniconda3/envs/llm/lib/python3.12/site-packages/vllm/v1/attention/ops/triton_unified_attention.py":491:35)
#loc46 = loc("/home/ubuntu/miniconda3/envs/llm/lib/python3.12/site-packages/vllm/v1/attention/ops/triton_unified_attention.py":491:65)
#loc47 = loc("/home/ubuntu/miniconda3/envs/llm/lib/python3.12/site-packages/vllm/v1/attention/ops/triton_unified_attention.py":491:56)
#loc48 = loc("/home/ubuntu/miniconda3/envs/llm/lib/python3.12/site-packages/vllm/v1/attention/ops/triton_unified_attention.py":493:23)
#loc49 = loc("/home/ubuntu/miniconda3/envs/llm/lib/python3.12/site-packages/vllm/v1/attention/ops/triton_unified_attention.py":493:34)
#loc50 = loc("/home/ubuntu/miniconda3/envs/llm/lib/python3.12/site-packages/vllm/v1/attention/ops/triton_unified_attention.py":494:25)
#loc51 = loc("/home/ubuntu/miniconda3/envs/llm/lib/python3.12/site-packages/vllm/v1/attention/ops/triton_unified_attention.py":494:36)
#loc52 = loc("/home/ubuntu/miniconda3/envs/llm/lib/python3.12/site-packages/vllm/v1/attention/ops/triton_unified_attention.py":494:10)
#loc53 = loc("/home/ubuntu/miniconda3/envs/llm/lib/python3.12/site-packages/vllm/v1/attention/ops/triton_unified_attention.py":495:17)
#loc54 = loc("/home/ubuntu/miniconda3/envs/llm/lib/python3.12/site-packages/vllm/v1/attention/ops/triton_unified_attention.py":495:10)
#loc55 = loc("/home/ubuntu/miniconda3/envs/llm/lib/python3.12/site-packages/vllm/v1/attention/ops/triton_unified_attention.py":498:33)
#loc56 = loc("/home/ubuntu/miniconda3/envs/llm/lib/python3.12/site-packages/vllm/v1/attention/ops/triton_unified_attention.py":498:47)
#loc57 = loc("/home/ubuntu/miniconda3/envs/llm/lib/python3.12/site-packages/vllm/v1/attention/ops/triton_unified_attention.py":498:53)
#loc58 = loc("/home/ubuntu/miniconda3/envs/llm/lib/python3.12/site-packages/vllm/v1/attention/ops/triton_unified_attention.py":499:40)
#loc59 = loc("/home/ubuntu/miniconda3/envs/llm/lib/python3.12/site-packages/vllm/v1/attention/ops/triton_unified_attention.py":499:64)
#loc60 = loc("/home/ubuntu/miniconda3/envs/llm/lib/python3.12/site-packages/vllm/v1/attention/ops/triton_unified_attention.py":499:70)
#loc61 = loc("/home/ubuntu/miniconda3/envs/llm/lib/python3.12/site-packages/vllm/v1/attention/ops/triton_unified_attention.py":500:45)
#loc62 = loc("/home/ubuntu/miniconda3/envs/llm/lib/python3.12/site-packages/vllm/v1/attention/ops/triton_unified_attention.py":500:65)
#loc63 = loc("/home/ubuntu/miniconda3/envs/llm/lib/python3.12/site-packages/vllm/v1/attention/ops/triton_unified_attention.py":500:71)
#loc64 = loc("/home/ubuntu/miniconda3/envs/llm/lib/python3.12/site-packages/vllm/v1/attention/ops/triton_unified_attention.py":505:22)
#loc65 = loc("/home/ubuntu/miniconda3/envs/llm/lib/python3.12/site-packages/vllm/v1/attention/ops/triton_unified_attention.py":505:46)
#loc66 = loc("/home/ubuntu/miniconda3/envs/llm/lib/python3.12/site-packages/vllm/v1/attention/ops/triton_unified_attention.py":505:33)
#loc67 = loc("/home/ubuntu/miniconda3/envs/llm/lib/python3.12/site-packages/vllm/v1/attention/ops/triton_unified_attention.py":505:70)
#loc68 = loc("/home/ubuntu/miniconda3/envs/llm/lib/python3.12/site-packages/vllm/v1/attention/ops/triton_unified_attention.py":505:57)
#loc69 = loc("/home/ubuntu/miniconda3/envs/llm/lib/python3.12/site-packages/vllm/v1/attention/ops/triton_unified_attention.py":504:20)
#loc70 = loc("/home/ubuntu/miniconda3/envs/llm/lib/python3.12/site-packages/vllm/v1/attention/ops/triton_unified_attention.py":504:8)
#loc71 = loc("/home/ubuntu/miniconda3/envs/llm/lib/python3.12/site-packages/vllm/v1/attention/ops/triton_unified_attention.py":509:35)
#loc72 = loc("/home/ubuntu/miniconda3/envs/llm/lib/python3.12/site-packages/vllm/v1/attention/ops/triton_unified_attention.py":527:28)
#loc73 = loc("/home/ubuntu/miniconda3/envs/llm/lib/python3.12/site-packages/vllm/v1/attention/ops/triton_unified_attention.py":545:10)
#loc74 = loc("/home/ubuntu/miniconda3/envs/llm/lib/python3.12/site-packages/vllm/v1/attention/ops/triton_unified_attention.py":547:10)
#loc75 = loc("/home/ubuntu/miniconda3/envs/llm/lib/python3.12/site-packages/vllm/v1/attention/ops/triton_unified_attention.py":552:56)
#loc76 = loc("/home/ubuntu/miniconda3/envs/llm/lib/python3.12/site-packages/vllm/v1/attention/ops/triton_unified_attention.py":557:44)
#loc77 = loc("/home/ubuntu/miniconda3/envs/llm/lib/python3.12/site-packages/vllm/v1/attention/ops/triton_unified_attention.py":584:42)
#loc78 = loc("/home/ubuntu/miniconda3/envs/llm/lib/python3.12/site-packages/vllm/v1/attention/ops/triton_unified_attention.py":585:24)
#loc79 = loc("/home/ubuntu/miniconda3/envs/llm/lib/python3.12/site-packages/vllm/v1/attention/ops/triton_unified_attention.py":585:29)
#loc80 = loc("/home/ubuntu/miniconda3/envs/llm/lib/python3.12/site-packages/vllm/v1/attention/ops/triton_unified_attention.py":585:48)
#loc81 = loc("/home/ubuntu/miniconda3/envs/llm/lib/python3.12/site-packages/vllm/v1/attention/ops/triton_unified_attention.py":585:8)
#loc82 = loc("/home/ubuntu/miniconda3/envs/llm/lib/python3.12/site-packages/vllm/v1/attention/ops/triton_unified_attention.py":587:25)
#loc83 = loc("/home/ubuntu/miniconda3/envs/llm/lib/python3.12/site-packages/vllm/v1/attention/ops/triton_unified_attention.py":587:37)
#loc84 = loc("/home/ubuntu/miniconda3/envs/llm/lib/python3.12/site-packages/vllm/v1/attention/ops/triton_unified_attention.py":588:33)
#loc85 = loc("/home/ubuntu/miniconda3/envs/llm/lib/python3.12/site-packages/vllm/v1/attention/ops/triton_unified_attention.py":591:31)
#loc86 = loc("/home/ubuntu/miniconda3/envs/llm/lib/python3.12/site-packages/vllm/v1/attention/ops/triton_unified_attention.py":591:66)
#loc87 = loc("/home/ubuntu/miniconda3/envs/llm/lib/python3.12/site-packages/vllm/v1/attention/ops/triton_unified_attention.py":591:52)
#loc88 = loc("/home/ubuntu/miniconda3/envs/llm/lib/python3.12/site-packages/vllm/v1/attention/ops/triton_unified_attention.py":591:12)
#loc89 = loc("/home/ubuntu/miniconda3/envs/llm/lib/python3.12/site-packages/vllm/v1/attention/ops/triton_unified_attention.py":592:13)
#loc90 = loc("/home/ubuntu/miniconda3/envs/llm/lib/python3.12/site-packages/vllm/v1/attention/ops/triton_unified_attention.py":595:31)
#loc91 = loc("/home/ubuntu/miniconda3/envs/llm/lib/python3.12/site-packages/vllm/v1/attention/ops/triton_unified_attention.py":595:42)
#loc92 = loc("/home/ubuntu/miniconda3/envs/llm/lib/python3.12/site-packages/vllm/v1/attention/ops/triton_unified_attention.py":596:28)
#loc93 = loc("/home/ubuntu/miniconda3/envs/llm/lib/python3.12/site-packages/vllm/v1/attention/ops/triton_unified_attention.py":596:14)
#loc94 = loc("/home/ubuntu/miniconda3/envs/llm/lib/python3.12/site-packages/vllm/v1/attention/ops/triton_unified_attention.py":597:14)
#loc95 = loc("/home/ubuntu/miniconda3/envs/llm/lib/python3.12/site-packages/vllm/v1/attention/ops/triton_unified_attention.py":598:28)
#loc96 = loc("/home/ubuntu/miniconda3/envs/llm/lib/python3.12/site-packages/vllm/v1/attention/ops/triton_unified_attention.py":598:40)
#loc97 = loc("/home/ubuntu/miniconda3/envs/llm/lib/python3.12/site-packages/vllm/v1/attention/ops/triton_unified_attention.py":598:51)
#loc98 = loc("/home/ubuntu/miniconda3/envs/llm/lib/python3.12/site-packages/vllm/v1/attention/ops/triton_unified_attention.py":598:14)
#loc99 = loc("/home/ubuntu/miniconda3/envs/llm/lib/python3.12/site-packages/vllm/v1/attention/ops/triton_unified_attention.py":602:31)
#loc100 = loc("/home/ubuntu/miniconda3/envs/llm/lib/python3.12/site-packages/vllm/v1/attention/ops/triton_unified_attention.py":602:42)
#loc101 = loc("/home/ubuntu/miniconda3/envs/llm/lib/python3.12/site-packages/vllm/v1/attention/ops/triton_unified_attention.py":603:28)
#loc102 = loc("/home/ubuntu/miniconda3/envs/llm/lib/python3.12/site-packages/vllm/v1/attention/ops/triton_unified_attention.py":603:14)
#loc103 = loc("/home/ubuntu/miniconda3/envs/llm/lib/python3.12/site-packages/vllm/v1/attention/ops/triton_unified_attention.py":604:21)
#loc104 = loc("/home/ubuntu/miniconda3/envs/llm/lib/python3.12/site-packages/vllm/v1/attention/ops/triton_unified_attention.py":604:14)
#loc105 = loc("/home/ubuntu/miniconda3/envs/llm/lib/python3.12/site-packages/vllm/v1/attention/ops/triton_unified_attention.py":605:40)
#loc106 = loc("/home/ubuntu/miniconda3/envs/llm/lib/python3.12/site-packages/vllm/v1/attention/ops/triton_unified_attention.py":605:51)
#loc107 = loc("/home/ubuntu/miniconda3/envs/llm/lib/python3.12/site-packages/vllm/v1/attention/ops/triton_unified_attention.py":605:14)
#loc108 = loc("/home/ubuntu/miniconda3/envs/llm/lib/python3.12/site-packages/vllm/v1/attention/ops/triton_unified_attention.py":611:26)
#loc109 = loc("/home/ubuntu/miniconda3/envs/llm/lib/python3.12/site-packages/vllm/v1/attention/ops/triton_unified_attention.py":611:47)
#loc110 = loc("/home/ubuntu/miniconda3/envs/llm/lib/python3.12/site-packages/vllm/v1/attention/ops/triton_unified_attention.py":611:37)
#loc111 = loc("/home/ubuntu/miniconda3/envs/llm/lib/python3.12/site-packages/vllm/v1/attention/ops/triton_unified_attention.py":610:28)
#loc112 = loc("/home/ubuntu/miniconda3/envs/llm/lib/python3.12/site-packages/vllm/v1/attention/ops/triton_unified_attention.py":610:12)
#loc113 = loc("/home/ubuntu/miniconda3/envs/llm/lib/python3.12/site-packages/vllm/v1/attention/ops/triton_unified_attention.py":626:47)
#loc114 = loc("/home/ubuntu/miniconda3/envs/llm/lib/python3.12/site-packages/vllm/v1/attention/ops/triton_unified_attention.py":626:37)
#loc115 = loc("/home/ubuntu/miniconda3/envs/llm/lib/python3.12/site-packages/vllm/v1/attention/ops/triton_unified_attention.py":625:30)
#loc116 = loc("/home/ubuntu/miniconda3/envs/llm/lib/python3.12/site-packages/vllm/v1/attention/ops/triton_unified_attention.py":625:12)
#loc117 = loc("/home/ubuntu/miniconda3/envs/llm/lib/python3.12/site-packages/vllm/v1/attention/ops/triton_unified_attention.py":639:48)
#loc118 = loc("/home/ubuntu/miniconda3/envs/llm/lib/python3.12/site-packages/vllm/v1/attention/ops/triton_unified_attention.py":639:38)
#loc119 = loc("/home/ubuntu/miniconda3/envs/llm/lib/python3.12/site-packages/vllm/v1/attention/ops/triton_unified_attention.py":640:30)
#loc120 = loc("/home/ubuntu/miniconda3/envs/llm/lib/python3.12/site-packages/vllm/v1/attention/ops/triton_unified_attention.py":640:42)
#loc121 = loc("/home/ubuntu/miniconda3/envs/llm/lib/python3.12/site-packages/vllm/v1/attention/ops/triton_unified_attention.py":673:31)
#loc122 = loc("/home/ubuntu/miniconda3/envs/llm/lib/python3.12/site-packages/vllm/v1/attention/ops/triton_unified_attention.py":673:21)
#loc123 = loc("/home/ubuntu/miniconda3/envs/llm/lib/python3.12/site-packages/vllm/v1/attention/ops/triton_unified_attention.py":673:13)
#loc124 = loc("/home/ubuntu/miniconda3/envs/llm/lib/python3.12/site-packages/vllm/v1/attention/ops/triton_unified_attention.py":679:36)
#loc125 = loc("/home/ubuntu/miniconda3/envs/llm/lib/python3.12/site-packages/vllm/v1/attention/ops/triton_unified_attention.py":679:60)
#loc126 = loc("/home/ubuntu/miniconda3/envs/llm/lib/python3.12/site-packages/vllm/v1/attention/ops/triton_unified_attention.py":679:73)
#loc127 = loc("/home/ubuntu/miniconda3/envs/llm/lib/python3.12/site-packages/triton/language/standard.py":189:40)
#loc129 = loc("/home/ubuntu/miniconda3/envs/llm/lib/python3.12/site-packages/triton/language/standard.py":168:27)
#loc130 = loc("/home/ubuntu/miniconda3/envs/llm/lib/python3.12/site-packages/vllm/v1/attention/ops/triton_unified_attention.py":708:28)
#loc131 = loc("/home/ubuntu/miniconda3/envs/llm/lib/python3.12/site-packages/vllm/v1/attention/ops/triton_unified_attention.py":712:29)
#loc132 = loc("/home/ubuntu/miniconda3/envs/llm/lib/python3.12/site-packages/vllm/v1/attention/ops/triton_unified_attention.py":712:49)
#loc133 = loc("/home/ubuntu/miniconda3/envs/llm/lib/python3.12/site-packages/vllm/v1/attention/ops/triton_unified_attention.py":715:27)
#loc134 = loc("/home/ubuntu/miniconda3/envs/llm/lib/python3.12/site-packages/vllm/v1/attention/ops/triton_unified_attention.py":715:23)
#loc135 = loc("/home/ubuntu/miniconda3/envs/llm/lib/python3.12/site-packages/vllm/v1/attention/ops/triton_unified_attention.py":715:19)
#loc136 = loc("/home/ubuntu/miniconda3/envs/llm/lib/python3.12/site-packages/triton/language/standard.py":291:36)
#loc138 = loc("/home/ubuntu/miniconda3/envs/llm/lib/python3.12/site-packages/triton/language/standard.py":261:15)
#loc139 = loc("/home/ubuntu/miniconda3/envs/llm/lib/python3.12/site-packages/vllm/v1/attention/ops/triton_unified_attention.py":721:27)
#loc140 = loc("/home/ubuntu/miniconda3/envs/llm/lib/python3.12/site-packages/vllm/v1/attention/ops/triton_unified_attention.py":721:23)
#loc141 = loc("/home/ubuntu/miniconda3/envs/llm/lib/python3.12/site-packages/vllm/v1/attention/ops/triton_unified_attention.py":724:26)
#loc142 = loc("/home/ubuntu/miniconda3/envs/llm/lib/python3.12/site-packages/vllm/v1/attention/ops/triton_unified_attention.py":724:20)
#loc143 = loc("/home/ubuntu/miniconda3/envs/llm/lib/python3.12/site-packages/vllm/v1/attention/ops/triton_unified_attention.py":727:16)
#loc144 = loc("/home/ubuntu/miniconda3/envs/llm/lib/python3.12/site-packages/vllm/v1/attention/ops/triton_unified_attention.py":727:24)
#loc145 = loc("/home/ubuntu/miniconda3/envs/llm/lib/python3.12/site-packages/vllm/v1/attention/ops/triton_unified_attention.py":737:27)
#loc146 = loc("/home/ubuntu/miniconda3/envs/llm/lib/python3.12/site-packages/vllm/v1/attention/ops/triton_unified_attention.py":737:37)
#loc147 = loc("/home/ubuntu/miniconda3/envs/llm/lib/python3.12/site-packages/vllm/v1/attention/ops/triton_unified_attention.py":737:8)
#loc148 = loc("/home/ubuntu/miniconda3/envs/llm/lib/python3.12/site-packages/vllm/v1/attention/ops/triton_unified_attention.py":741:11)
#loc149 = loc("/home/ubuntu/miniconda3/envs/llm/lib/python3.12/site-packages/vllm/v1/attention/ops/triton_unified_attention.py":742:37)
#loc150 = loc("/home/ubuntu/miniconda3/envs/llm/lib/python3.12/site-packages/vllm/v1/attention/ops/triton_unified_attention.py":742:10)
#loc151 = loc("/home/ubuntu/miniconda3/envs/llm/lib/python3.12/site-packages/vllm/v1/attention/ops/triton_unified_attention.py":743:21)
#loc152 = loc("/home/ubuntu/miniconda3/envs/llm/lib/python3.12/site-packages/vllm/v1/attention/ops/triton_unified_attention.py":743:10)
#loc153 = loc("/home/ubuntu/miniconda3/envs/llm/lib/python3.12/site-packages/vllm/v1/attention/ops/triton_unified_attention.py":744:10)
#loc154 = loc("/home/ubuntu/miniconda3/envs/llm/lib/python3.12/site-packages/vllm/v1/attention/ops/triton_unified_attention.py":747:26)
#loc155 = loc("/home/ubuntu/miniconda3/envs/llm/lib/python3.12/site-packages/vllm/v1/attention/ops/triton_unified_attention.py":748:8)
#loc156 = loc("/home/ubuntu/miniconda3/envs/llm/lib/python3.12/site-packages/vllm/v1/attention/ops/triton_unified_attention.py":752:26)
#loc157 = loc("/home/ubuntu/miniconda3/envs/llm/lib/python3.12/site-packages/vllm/v1/attention/ops/triton_unified_attention.py":752:39)
#loc158 = loc("/home/ubuntu/miniconda3/envs/llm/lib/python3.12/site-packages/vllm/v1/attention/ops/triton_unified_attention.py":753:27)
#loc159 = loc("/home/ubuntu/miniconda3/envs/llm/lib/python3.12/site-packages/vllm/v1/attention/ops/triton_unified_attention.py":753:10)
#loc160 = loc("/home/ubuntu/miniconda3/envs/llm/lib/python3.12/site-packages/vllm/v1/attention/ops/triton_unified_attention.py":754:10)
#loc161 = loc("/home/ubuntu/miniconda3/envs/llm/lib/python3.12/site-packages/vllm/v1/attention/ops/triton_unified_attention.py":756:64)
#loc162 = loc("/home/ubuntu/miniconda3/envs/llm/lib/python3.12/site-packages/vllm/v1/attention/ops/triton_unified_attention.py":756:28)
#loc163 = loc("/home/ubuntu/miniconda3/envs/llm/lib/python3.12/site-packages/vllm/v1/attention/ops/triton_unified_attention.py":756:41)
#loc164 = loc("/home/ubuntu/miniconda3/envs/llm/lib/python3.12/site-packages/vllm/v1/attention/ops/triton_unified_attention.py":757:31)
#loc165 = loc("/home/ubuntu/miniconda3/envs/llm/lib/python3.12/site-packages/vllm/v1/attention/ops/triton_unified_attention.py":757:44)
#loc166 = loc("/home/ubuntu/miniconda3/envs/llm/lib/python3.12/site-packages/vllm/v1/attention/ops/triton_unified_attention.py":757:4)
#loc191 = loc("q_block_global_idx"(#loc2))
#loc192 = loc("kv_head_idx"(#loc3))
#loc193 = loc("segm_idx"(#loc4))
#loc194 = loc("left"(#loc5))
#loc198 = loc("mid"(#loc10))
#loc199 = loc("mid"(#loc11))
#loc200 = loc("val"(#loc12))
#loc201 = loc("val"(#loc13))
#loc202 = loc("mid_val"(#loc14))
#loc203 = loc("mid_val"(#loc15))
#loc204 = loc("left"(#loc18))
#loc205 = loc("q_block_start_idx"(#loc21))
#loc206 = loc("q_block_start_idx"(#loc22))
#loc207 = loc("q_block_start_idx"(#loc23))
#loc208 = loc("q_block_start_idx"(#loc24))
#loc209 = loc("q_block_local_idx"(#loc25))
#loc210 = loc("cur_batch_in_all_stop_index"(#loc26))
#loc211 = loc("cur_batch_in_all_stop_index"(#loc27))
#loc212 = loc("cur_batch_query_len"(#loc28))
#loc213 = loc("seq_len"(#loc32))
#loc214 = loc("seq_len"(#loc33))
#loc215 = loc("tiles_per_segment"(#loc35))
#loc216 = loc("offs_m"(#loc40))
#loc217 = loc("offs_d"(#loc41))
#loc218 = loc("query_pos"(#loc42))
#loc219 = loc("query_pos"(#loc43))
#loc220 = loc("query_offset_0"(#loc44))
#loc221 = loc("query_offset_1"(#loc45))
#loc222 = loc("query_offset_1"(#loc46))
#loc223 = loc("query_offset_1"(#loc47))
#loc224 = loc("query_offset"(#loc48))
#loc225 = loc("query_offset"(#loc49))
#loc226 = loc("query_offset"(#loc50))
#loc227 = loc("query_offset"(#loc51))
#loc228 = loc("query_offset"(#loc52))
#loc229 = loc("query_offset"(#loc53))
#loc230 = loc("query_offset"(#loc54))
#loc231 = loc("dim_mask"(#loc55))
#loc232 = loc("dim_mask"(#loc56))
#loc233 = loc("dim_mask"(#loc57))
#loc234 = loc("query_mask_0"(#loc58))
#loc235 = loc("query_mask_0"(#loc59))
#loc236 = loc("query_mask_0"(#loc60))
#loc237 = loc("query_mask_1"(#loc61))
#loc238 = loc("query_mask_1"(#loc62))
#loc239 = loc("query_mask_1"(#loc63))
#loc240 = loc("Q"(#loc64))
#loc241 = loc("Q"(#loc65))
#loc242 = loc("Q"(#loc66))
#loc243 = loc("Q"(#loc67))
#loc244 = loc("Q"(#loc68))
#loc245 = loc("Q"(#loc69))
#loc246 = loc("Q"(#loc70))
#loc247 = loc("block_table_offset"(#loc71))
#loc248 = loc("context_len"(#loc72))
#loc249 = loc("max_seq_prefix_len"(#loc73))
#loc250 = loc("max_seq_prefix_len"(#loc74))
#loc251 = loc("max_seq_prefix_len"(#loc75))
#loc252 = loc("num_tiles"(#loc76))
#loc253 = loc("M"(#loc81))
#loc254 = loc("seq_offset"(#loc82))
#loc255 = loc("seq_offset"(#loc83))
#loc256 = loc("tile_mask"(#loc84))
#loc257 = loc("physical_block_idx"(#loc85))
#loc258 = loc("physical_block_idx"(#loc86))
#loc259 = loc("physical_block_idx"(#loc87))
#loc260 = loc("physical_block_idx"(#loc88))
#loc261 = loc("physical_block_idx"(#loc89))
#loc262 = loc("v_offset"(#loc90))
#loc263 = loc("v_offset"(#loc91))
#loc264 = loc("v_offset"(#loc92))
#loc265 = loc("v_offset"(#loc93))
#loc266 = loc("v_offset"(#loc94))
#loc267 = loc("v_offset"(#loc95))
#loc268 = loc("v_offset"(#loc96))
#loc269 = loc("v_offset"(#loc97))
#loc270 = loc("v_offset"(#loc98))
#loc271 = loc("k_offset"(#loc99))
#loc272 = loc("k_offset"(#loc100))
#loc273 = loc("k_offset"(#loc101))
#loc274 = loc("k_offset"(#loc102))
#loc275 = loc("k_offset"(#loc103))
#loc276 = loc("k_offset"(#loc104))
#loc277 = loc("k_offset"(#loc105))
#loc278 = loc("k_offset"(#loc106))
#loc279 = loc("k_offset"(#loc107))
#loc280 = loc("K_load"(#loc108))
#loc281 = loc("K_load"(#loc109))
#loc282 = loc("K_load"(#loc110))
#loc283 = loc("K_load"(#loc111))
#loc284 = loc("K_load"(#loc112))
#loc285 = loc("V_load"(#loc113))
#loc286 = loc("V_load"(#loc114))
#loc287 = loc("V_load"(#loc115))
#loc288 = loc("V_load"(#loc116))
#loc289 = loc("query_abs_pos"(#loc117))
#loc290 = loc("query_abs_pos"(#loc118))
#loc291 = loc("seq_mask"(#loc119))
#loc292 = loc("seq_mask"(#loc120))
#loc293 = loc("S"(#loc121))
#loc294 = loc("S"(#loc122))
#loc295 = loc("S"(#loc123))
#loc296 = loc("S"(#loc124))
#loc297 = loc("S"(#loc125))
#loc298 = loc("S"(#loc126))
#loc300 = loc("m_j"(#loc130))
#loc301 = loc("m_j"(#loc131))
#loc302 = loc("m_j"(#loc132))
#loc303 = loc("P"(#loc133))
#loc304 = loc("P"(#loc134))
#loc305 = loc("P"(#loc135))
#loc307 = loc("alpha"(#loc139))
#loc308 = loc("alpha"(#loc140))
#loc309 = loc("acc"(#loc141))
#loc310 = loc("acc"(#loc142))
#loc311 = loc("L"(#loc143))
#loc312 = loc("L"(#loc144))
#loc313 = loc("acc"(#loc145))
#loc314 = loc("acc"(#loc146))
#loc315 = loc("segm_output_offset"(#loc148))
#loc316 = loc("segm_output_offset"(#loc149))
#loc317 = loc("segm_output_offset"(#loc150))
#loc318 = loc("segm_output_offset"(#loc151))
#loc319 = loc("segm_output_offset"(#loc152))
#loc320 = loc("segm_output_offset"(#loc153))
#loc321 = loc("segm_offset"(#loc156))
#loc322 = loc("segm_offset"(#loc157))
#loc323 = loc("segm_offset"(#loc158))
#loc324 = loc("segm_offset"(#loc159))
#loc325 = loc("segm_offset"(#loc160))
#loc326 = loc("right"(#loc194))
#loc327 = loc(callsite(#loc7 at #loc195))
#loc330 = loc(callsite(#loc198 at #loc195))
#loc331 = loc("right"(#loc199))
#loc332 = loc(callsite(#loc200 at #loc195))
#loc333 = loc(callsite(#loc201 at #loc195))
#loc334 = loc(callsite(#loc202 at #loc195))
#loc335 = loc(callsite(#loc203 at #loc195))
#loc336 = loc(callsite(#loc16 at #loc195))
#loc337 = loc(callsite(#loc17 at #loc195))
#loc338 = loc("left"(#loc204))
#loc339 = loc(callsite(#loc1 at #loc195))
#loc340 = loc(callsite(#loc19 at #loc195))
#loc341 = loc(callsite(#loc20 at #loc195))
#loc342 = loc(callsite(#loc34 at #loc215))
#loc343 = loc(callsite(#loc36 at #loc215))
#loc344 = loc(callsite(#loc34 at #loc252))
#loc345 = loc(callsite(#loc36 at #loc252))
#loc346 = loc("L"(#loc253))
#loc347 = loc(callsite(#loc127 at #loc299))
#loc349 = loc(callsite(#loc136 at #loc306))
#loc351 = loc(callsite(#loc326 at #loc195))
#loc352 = loc(callsite(#loc331 at #loc195))
#loc353 = loc(callsite(#loc338 at #loc195))
#loc354 = loc("acc"(#loc346))
#loc355 = loc(callsite(#loc129 at #loc347))
#loc356 = loc(callsite(#loc138 at #loc349))
